test/torch.safetensors (safetensors, 6841 bytes, 19 tensors)

float64_3 f8 [3]
000000 c5 7a be c3 9f d6 df bf 30 a0 a7 d8 9f 4d 01 40
       -0.49747461429243983 2.162902538886577
000010 99 85 78 e1 2d bd bf 3f
       0.12398039583833621

float64_35 f8 [3, 5]
000000 99 fa 10 22 fe c2 bf 3f e9 a6 a4 4e 52 38 e1 3f
       0.12406910258958205 0.5381251846312952
000010 2e db 85 3e 5c 7b ee 3f 00 69 62 21 de 87 e4 bf
       0.9525586339139858 -0.6415854122199391
000020 6e 46 82 d7 a1 78 e0 3f 01 95 bd e7 ca 2a 02 c0
       0.514725609699054 -2.2708948235255098
000030 cc a9 98 60 3d e3 ec bf a2 93 b6 6c 2b 7f d3 bf
       -0.9027392279288562 -0.30463681808969956
000040 17 d8 c7 73 96 fb e4 bf 95 fc f0 fa c0 f2 e5 bf
       -0.6557113896694798 -0.685883035774071
000050 52 cd 6f 26 6f 20 b0 bf 85 eb 1f 49 a6 dc f9 bf
       -0.06299490631481788 -1.6163695198472123
000060 3c be 3b c5 23 1d db bf c2 59 6a 76 f1 31 e2 3f
       -0.4236535478694099 0.5685965836335571
000070 6b 02 70 ec 3f 92 f4 3f
       1.285705493530396

float64_357 f8 [3, 5, 7]
000000 e3 ac 16 04 61 2c f2 3f 77 ed 5f 6e 14 73 c2 3f
       1.1358347091398222 0.1441369570673989
000010 eb 9d 15 94 b2 43 f0 3f 55 5e 05 26 c8 a5 c1 bf
       1.0165277275608513 -0.1378717599534293
000020 c3 5a ee 8d 7d ad e1 bf 48 fa 4c b9 42 94 ee bf
       -0.552428033074499 -0.9555982226518802
000030 00 55 3a 58 27 4d e2 3f 7c 9f c3 02 f8 4f f6 3f
       0.5719181750488644 1.3945236309027385
000040 e6 4e 51 3f 87 6b 02 40 52 6f 5e 06 3e a3 e9 bf
       2.3025040575683873 -0.8011770367042834
000050 94 5b 48 41 74 8d d3 bf b1 5e 6f 81 4f 94 e3 3f
       -0.305508674385629 0.6118543174770449
000060 bf 98 56 8f d4 ff d9 bf 13 9a e2 b2 e6 ee b2 3f
       -0.40623964307668453 0.0739578425151211
000070 8a d1 77 94 03 7f eb 3f 49 bd 2a 6d 84 5a c9 3f
       0.8592546367422511 0.19807486849229353
000080 33 6c ea fe 82 65 05 c0 46 25 60 85 24 98 8e bf
       -2.6745662608423344 -0.01493862659482893
000090 cc cf 35 c2 1d d8 cd bf 8e 1d 37 bf 4e 47 e3 3f
       -0.23315784438056963 0.602454541652081
0000a0 63 62 4a 44 25 7b e4 bf 40 12 0d 85 e0 df dd bf
       -0.6400324186134408 -0.46678936951892425
0000b0 3f 0f 8c 03 e9 8f 01 40 63 2f 5b 0e cb 38 f9 bf
       2.1952686574094566 -1.5763655243672126
0000c0 03 d0 40 51 52 c1 dd bf c0 85 f7 e6 b5 65 d3 bf
       -0.46492441115265154 -0.303082919648741
0000d0 21 1e aa 72 c1 a9 e0 bf fc 0a 64 0f 97 99 d0 3f
       -0.5207221259633493 0.25937439444548693
0000e0 0c 3f 80 4a 9d 11 d4 3f 52 72 bd ce 5a bf d2 bf
       0.3135750987575967 -0.2929293650575221
0000f0 fd ae b5 86 78 ae da bf 87 6d 4c 6f d2 ba b2 3f
       -0.4168988528751781 0.07316317765474
000100 13 45 06 fd 02 64 f2 3f 80 2d 11 24 52 85 b1 3f
       1.1494169124383162 0.06844056492371031
000110 08 23 75 d9 b5 26 02 40 05 99 66 9c 43 32 e9 bf
       2.2689015377876594 -0.7873857550337396
000120 da 90 79 5e f7 d7 f0 3f 30 1e cf 66 6d d8 c5 3f
       1.052726143877456 0.17066733856175764
000130 e6 b4 25 33 06 e3 f2 3f 16 d5 b9 82 b0 4e ca 3f
       1.1804258344594074 0.2055264128027054
000140 b9 d8 ea 55 7c 80 c7 bf 9c 16 b5 83 e4 99 fd 3f
       -0.18360857196029715 1.8500714440173516
000150 c8 c5 7d 59 aa a5 fd 3f 2f 89 8c fd 3f 21 f2 bf
       1.8529456611398576 -1.1331176666504452
000160 8e 98 6e e2 f6 c6 fc 3f 95 59 01 f4 c5 60 01 c0
       1.7985752911568258 -2.172252565661618
000170 71 ec 95 b5 14 08 e9 3f f5 5e 81 7d 87 cb f3 bf
       0.7822364374727738 -1.237189760451597
000180 fb 3b 73 64 ef 0a fa bf ce a5 58 40 34 c9 02 c0
       -1.6276697086175307 -2.3482441927960513
000190 83 8f 73 b9 75 e6 00 40 35 48 a3 6c 9d 38 f1 bf
       2.1125292290107054 -1.0763220065750947
0001a0 d5 fc 8f c9 c7 78 f6 3f a6 18 d7 69 cb 59 d4 3f
       1.4044874070676105 0.31798062644919367
0001b0 82 d1 33 c9 2b e0 e3 3f 9c cc 4b 32 43 04 fa bf
       0.6211146287665061 -1.6260406460467385
0001c0 62 d1 5f 41 5d 76 f4 bf 8c e3 70 67 13 33 02 40
       -1.2788975289996292 2.274939354069323
0001d0 75 ef 17 7b 97 ab e0 bf 24 e8 21 89 05 56 e0 bf
       -0.5209462551278948 -0.5105006864898809
0001e0 3a 78 0e 2b 2e 2d d0 3f 9e ca ac 16 f2 91 ec 3f
       0.2527575893853996 0.8928156321402019
0001f0 17 ca 35 ec 98 8e cc bf 44 04 e8 13 66 2e c3 3f
       -0.2231017258996679 0.1498534772108845
000200 56 d3 b2 15 8f 94 70 3f e7 31 01 7c ba 1d f1 bf
       0.004047926831096079 -1.069757923501237
000210 74 0c fa 57 46 cf f0 3f 9f 13 a1 98 a7 02 f6 bf
       1.050604194316091 -1.375648113448939
000220 48 d0 cc 23 5e 38 03 c0 2f 3a de 65 97 e1 d4 bf
       -2.4025233075026655 -0.3262690062337325
000230 18 62 33 2e 42 45 f0 bf 64 eb 01 55 e2 85 b2 bf
       -1.0169088177409602 -0.07235540938738222
000240 f4 f1 ae ef 94 06 00 c0 28 39 f0 76 72 44 db 3f
       -2.0032137608779923 0.42605268111300854
000250 42 e7 ba b0 76 53 de 3f 9f 3d 02 43 40 4a e6 3f
       0.47384421595380755 0.6965638455166533
000260 98 d1 ba 08 bd ba e0 3f 74 c6 84 38 df 27 e9 bf
       0.5227952166083467 -0.7861171821479744
000270 ad 35 8a 52 bd 39 c7 3f 52 f4 08 8a 83 55 da 3f
       0.18144957094447758 0.41146934967020343
000280 5a ee 3d a6 19 32 d1 bf 59 87 fb 0f 8c 33 ec bf
       -0.2686828731018288 -0.8812923729094378
000290 10 a8 72 c3 dc 6e df 3f 30 61 8d aa ea e1 eb 3f
       0.4911415012999223 0.8713277178858672
0002a0 ce b5 7d 92 a4 35 d0 bf b3 b2 25 93 53 0d dc bf
       -0.2532741003586495 -0.4383133828148786
0002b0 d4 98 7b 28 95 94 eb 3f b0 41 33 e2 76 41 f5 3f
       0.8618875303916647 1.328482516855825
0002c0 b3 68 44 e5 bc b6 ef 3f 15 fc 68 c9 00 49 f8 3f
       0.9910568693042222 1.5178230159360784
0002d0 c1 c4 dd e4 36 fc b5 bf 74 cb f9 ba 1c d0 c4 bf
       -0.08587973678165196 -0.16260108117748084
0002e0 40 1b a9 17 51 9e cb bf a4 1d 39 56 20 e4 db 3f
       -0.21576894431401605 0.4357987253210587
0002f0 23 37 c1 a6 30 06 c3 bf d5 f0 1d 4f 9c 95 d6 bf
       -0.14862640516587886 -0.35288150526299705
000300 fc 25 7f 63 72 90 c1 bf bd 69 b1 7c 85 05 c1 3f
       -0.13722066744075778 0.13298100079084732
000310 51 5d 34 32 70 48 d6 bf 0b bb fe 11 d9 64 de 3f
       -0.3481712808874891 0.47490526921585346
000320 ad 8f b8 f4 6f b2 e3 bf e2 b5 0a f4 da 28 ed bf
       -0.6155319003778367 -0.9112372175638337
000330 b8 3e 0b 36 11 f6 e4 bf 0a 10 20 75 6b e6 e3 3f
       -0.6550375037713456 0.6218774116136967
000340 9b 8d c3 4f a5 2f c4 bf
       -0.15770403284760168

float32_3 f4 [3]
000000 40 56 f8 3d 53 1e 6c 3d 96 78 a1 3e
       0.12125826 0.057646107 0.31537312

float32_35 f4 [3, 5]
000000 15 52 91 3f bd d6 99 bf 80 7d 65 bf b0 23 73 bf
       1.1353174 -1.2018658 -0.8964462 -0.9497633
000010 fb ac c5 bf 82 ed 85 be 0a b1 88 be 00 b0 8c 3f
       -1.5443414 -0.26157767 -0.2669757 1.0991211
000020 21 39 e9 bd 14 a9 58 bf 82 9f 7d 3e 5d 70 28 3f
       -0.113878496 -0.8463299 0.24767879 0.6579645
000030 85 2b 98 bf 02 50 25 3f a8 27 47 3f
       -1.1888281 0.6457521 0.77794886

float32_357 f4 [3, 5, 7]
000000 7c 42 1b bf fb f9 d7 be 98 02 2d 3f ad 3d 2b be
       -0.6064832 -0.42182907 0.6758208 -0.16722746
000010 b5 16 c3 3f 9e f5 f9 3f 81 17 98 3f ff c1 22 bf
       1.5241305 1.9528081 1.1882173 -0.63577265
000020 88 83 a6 3f d5 67 49 bf a4 a4 fd 3e 3e 1d f9 bd
       1.300889 -0.7867406 0.49539673 -0.12163781
000030 1c fd ed bf d9 48 b0 3e 6e 79 99 3f 15 5f 4b bd
       -1.8592868 0.34430578 1.1990182 -0.049651224
000040 d2 a0 85 3c 49 6a 92 bf c7 d3 1b 40 56 2b c9 3f
       0.016312037 -1.1438686 2.4348009 1.571635
000050 b3 03 f1 be 62 e3 01 bf d3 28 87 3e de d2 ca 3f
       -0.47073135 -0.50737584 0.26398334 1.5845602
000060 36 e2 1b bf 94 81 01 40 af ca 6a bf 7e 3f 7f 3f
       -0.60892045 2.0235338 -0.9171552 0.99706256
000070 05 1a be 3f ec 15 14 3e dd b5 3e bf 8f 5f bc be
       1.485169 0.14461488 -0.7449625 -0.36791655
000080 42 5c 8d bd e3 05 33 bf b7 a3 0a 3f d6 13 1e 3f
       -0.069023624 -0.6993086 0.5415606 0.6174902
000090 b6 42 ce 3d 9e 80 2a bf 49 a0 ab bf 68 66 2e bf
       0.10071318 -0.66602504 -1.340829 -0.6812501
0000a0 32 49 0d 3f ee 9e 95 bf e8 21 ef be 81 e1 36 bf
       0.5518981 -1.1689126 -0.46705556 -0.7143784
0000b0 34 c5 35 bf 88 70 d2 bf 3d 33 32 be fa fa 2f 40
       -0.71004033 -1.6440592 -0.17402358 2.7496934
0000c0 40 a6 31 3f a3 28 40 bf 6b 42 77 3e e7 d8 d4 be
       0.693943 -0.75062007 0.2414643 -0.41571733
0000d0 f4 f0 fd be 2d 3f 53 be 7a 31 16 3f 84 7d f5 3f
       -0.49597895 -0.20629568 0.58669245 1.9178929
0000e0 ab 2b 23 3e 74 97 e7 be b7 de 64 be 90 d9 08 c0
       0.15934627 -0.45232737 -0.22350584 -2.138279
0000f0 50 9f 6d be 19 97 2b 3f b7 e9 78 3e e8 f3 32 3f
       -0.23205304 0.6702743 0.24307905 0.6990342
000100 05 dc cb 3f a9 a8 e8 3f 1f a1 a8 3f 9e 41 bb bf
       1.592652 1.8176471 1.317417 -1.46294
000110 b5 1a 9b bf ac 93 04 3f be 6e ab 3e 43 99 a5 3e
       -1.2117525 0.5178783 0.33482927 0.32343492
000120 43 d2 bf 3f 30 78 a2 bf 19 04 04 bf dc 03 e9 be
       1.4986042 -1.2692928 -0.5156875 -0.45510757
000130 00 aa d8 3f 0c fc c3 be 53 ff a0 3f 37 f1 ef 3e
       1.692688 -0.38278234 1.2577919 0.4686372
000140 8e e6 9d 3f 37 f3 4e 3e 6c 6a 74 3c aa 83 a3 be
       1.2335985 0.20209967 0.014917951 -0.3193639
000150 52 cc dd 3e bb 4e f1 bf c5 82 da 3f 0d 06 13 be
       0.43319947 -1.8852152 1.7071158 -0.14357777
000160 bb 59 83 bf 3e c6 0b 3f d9 2e b6 3e af a6 84 3f
       -1.0261759 0.5459937 0.35582617 1.0363368
000170 d1 94 67 3e d5 26 a2 bf b2 31 96 3f 60 c0 3a be
       0.22615363 -1.26681 1.1733916 -0.18237448
000180 66 65 2c bf 3a 04 b2 3f 40 68 b4 be 91 2f 54 3f
       -0.6734222 1.390754 -0.35235786 0.8288508
000190 a7 5a 93 be 56 9d 03 bf 35 bf 55 bf 58 9a 16 bf
       -0.287801 -0.5141195 -0.83494884 -0.5882926
0001a0 c8 01 89 3e
       0.2675917

int32_3 i4 [3]
000000 43 00 00 00 2e 00 00 00 20 00 00 00
       67 46 32

int32_35 i4 [3, 5]
000000 2d 00 00 00 54 00 00 00 47 00 00 00 15 00 00 00
       45 84 71 21
000010 5b 00 00 00 5c 00 00 00 44 00 00 00 2c 00 00 00
       91 92 68 44
000020 1f 00 00 00 5e 00 00 00 60 00 00 00 0f 00 00 00
       31 94 96 15
000030 2c 00 00 00 4c 00 00 00 59 00 00 00
       44 76 89

int32_357 i4 [3, 5, 7]
000000 39 00 00 00 4f 00 00 00 0e 00 00 00 26 00 00 00
       57 79 14 38
000010 5a 00 00 00 3e 00 00 00 10 00 00 00 36 00 00 00
       90 62 16 54
000020 07 00 00 00 05 00 00 00 04 00 00 00 3f 00 00 00
       7 5 4 63
000030 3e 00 00 00 2b 00 00 00 23 00 00 00 0c 00 00 00
       62 43 35 12
000040 01 00 00 00 0c 00 00 00 5f 00 00 00 29 00 00 00
       1 12 95 41
000050 25 00 00 00 2a 00 00 00 0f 00 00 00 11 00 00 00
       37 42 15 17
000060 1e 00 00 00 5d 00 00 00 21 00 00 00 03 00 00 00
       30 93 33 3
000070 60 00 00 00 2c 00 00 00 23 00 00 00 3a 00 00 00
       96 44 35 58
000080 3f 00 00 00 3e 00 00 00 41 00 00 00 29 00 00 00
       63 62 65 41
000090 44 00 00 00 26 00 00 00 33 00 00 00 10 00 00 00
       68 38 51 16
0000a0 3d 00 00 00 1e 00 00 00 30 00 00 00 4b 00 00 00
       61 30 48 75
0000b0 4d 00 00 00 1c 00 00 00 37 00 00 00 51 00 00 00
       77 28 55 81
0000c0 0a 00 00 00 37 00 00 00 47 00 00 00 12 00 00 00
       10 55 71 18
0000d0 18 00 00 00 44 00 00 00 63 00 00 00 4f 00 00 00
       24 68 99 79
0000e0 26 00 00 00 36 00 00 00 30 00 00 00 1a 00 00 00
       38 54 48 26
0000f0 0a 00 00 00 34 00 00 00 4a 00 00 00 3e 00 00 00
       10 52 74 62
000100 29 00 00 00 59 00 00 00 39 00 00 00 24 00 00 00
       41 89 57 36
000110 40 00 00 00 11 00 00 00 1a 00 00 00 56 00 00 00
       64 17 26 86
000120 53 00 00 00 4d 00 00 00 15 00 00 00 4e 00 00 00
       83 77 21 78
000130 1c 00 00 00 15 00 00 00 11 00 00 00 2b 00 00 00
       28 21 17 43
000140 0c 00 00 00 14 00 00 00 00 00 00 00 30 00 00 00
       12 20 0 48
000150 2e 00 00 00 38 00 00 00 5a 00 00 00 16 00 00 00
       46 56 90 22
000160 4a 00 00 00 12 00 00 00 43 00 00 00 2b 00 00 00
       74 18 67 43
000170 30 00 00 00 17 00 00 00 38 00 00 00 59 00 00 00
       48 23 56 89
000180 20 00 00 00 05 00 00 00 05 00 00 00 5b 00 00 00
       32 5 5 91
000190 13 00 00 00 10 00 00 00 2d 00 00 00 44 00 00 00
       19 16 45 68
0001a0 4f 00 00 00
       79

bfloat16_35 bf16 [3, 5]
000000 2a 40 9c 3f 81 3f 42 be 6e 3f 18 bf 90 bf 25 bf
       2.65625 1.21875 1.0078125 -0.18945312 0.9296875 -0.59375 -1.125 -0.64453125
000010 88 3d ae bf 92 3e a9 3f cc bf 57 bf df 3d
       0.06640625 -1.359375 0.28515625 1.3203125 -1.59375 -0.83984375 0.10888672

bfloat16_357 bf16 [3, 5, 7]
000000 b9 3e 69 bd ac 3e 18 40 83 be 64 3f 71 3f 54 3f
       0.36132812 -0.056884766 0.3359375 2.375 -0.25585938 0.890625 0.94140625 0.828125
000010 1a 40 f4 be 6a bf 46 bf d8 bf a4 3e ed 3f c0 bf
       2.40625 -0.4765625 -0.9140625 -0.7734375 -1.6875 0.3203125 1.8515625 -1.5
000020 ea 3e 40 3f bb bd 5e bf b5 3f 49 bf 9a 3f 12 c0
       0.45703125 0.75 -0.091308594 -0.8671875 1.4140625 -0.78515625 1.203125 -2.28125
000030 17 bf b5 be 00 bf ff 3d 1c bf d3 be 6e bf 15 bf
       -0.58984375 -0.35351562 -0.5 0.12451172 -0.609375 -0.41210938 -0.9296875 -0.58203125
000040 00 3f 0e c0 87 bc e2 3e 39 3f 93 3e cd be c0 be
       0.5 -2.21875 -0.016479492 0.44140625 0.72265625 0.28710938 -0.40039062 -0.375
000050 4a 3f 91 3f 38 3f d4 be d4 bf 99 3e e0 3d 5a 3f
       0.7890625 1.1328125 0.71875 -0.4140625 -1.65625 0.29882812 0.109375 0.8515625
000060 19 bf 4e be d9 3f 1f 3f 95 3f 4a 3f 47 3e b4 bf
       -0.59765625 -0.20117188 1.6953125 0.62109375 1.1640625 0.7890625 0.19433594 -1.40625
000070 45 be a5 be 81 3f 15 bf a9 bf 9b 3e 8f 3f c5 3e
       -0.19238281 -0.32226562 1.0078125 -0.58203125 -1.3203125 0.30273438 1.1171875 0.38476562
000080 07 c0 44 3f 1e be 08 bd ce 3e 79 bf d5 bf e5 be
       -2.109375 0.765625 -0.15429688 -0.033203125 0.40234375 -0.97265625 -1.6640625 -0.44726562
000090 dd bf de 3f 20 3f 19 3e c5 bf 91 3f 94 3e 79 bf
       -1.7265625 1.734375 0.625 0.14941406 -1.5390625 1.1328125 0.2890625 -0.97265625
0000a0 73 3e c6 bf a5 be 87 bf 17 c0 63 3d 5f bd 18 3f
       0.23730469 -1.546875 -0.32226562 -1.0546875 -2.359375 0.055419922 -0.05444336 0.59375
0000b0 99 3f cc be 4b 3f 22 3d 6c 3d c0 3e e7 3f fa 3e
       1.1953125 -0.3984375 0.79296875 0.03955078 0.057617188 0.375 1.8046875 0.48828125
0000c0 98 3f 12 be b3 3f 0e 3f 9c 3f c9 3e 26 3f 89 be
       1.1875 -0.14257812 1.3984375 0.5546875 1.21875 0.39257812 0.6484375 -0.26757812
0000d0 42 be
       -0.18945312

float16_35 f2 [3, 5]
000000 40 bd 9d bc bf b8 71 3d dc 35 11 ba 8b bc 82 3f
       -1.3125 -1.153 -0.5933 1.36 0.3662 -0.7583 -1.136 1.877
000010 fd ba 45 39 2e b4 3e b3 71 3a b1 39 9c 33
       -0.8735 0.6587 -0.2612 -0.2263 0.805 0.7114 0.2378

float16_357 f2 [3, 5, 7]
000000 03 b7 41 3c f2 b8 13 b6 02 b9 e3 36 40 38 38 bb
       -0.4382 1.063 -0.618 -0.3796 -0.626 0.4304 0.5312 -0.9023
000010 1a 37 3f b8 a2 39 2c 3d b6 2d c0 39 28 3a 1f 38
       0.4438 -0.531 0.704 1.293 0.08923 0.7188 0.7695 0.515
000020 9c 3a c3 3e d6 3b f2 3e 46 b7 9c bb f3 1e bc bd
       0.826 1.69 0.9795 1.736 -0.4546 -0.951 0.006786 -1.434
000030 2d 3a 0f bd d0 39 95 3c bf bb 53 b6 45 bc 3c 40
       0.772 -1.265 0.7266 1.1455 -0.9683 -0.3953 -1.067 2.117
000040 95 3b 34 a3 02 3a 97 a8 df b9 68 3e c8 bd ea b9
       0.9478 -0.01407 0.751 -0.03586 -0.734 1.602 -1.445 -0.7393
000050 19 bf 46 bc 91 32 fb b4 fb bc 2b b8 51 34 9d 3c
       -1.774 -1.068 0.2052 -0.3113 -1.245 -0.521 0.2698 1.153
000060 a3 be 0d ba 5e bc ca c0 4c 39 34 35 e8 2a 61 b9
       -1.659 -0.7563 -1.092 -2.395 0.662 0.3252 0.05396 -0.6724
000070 8c 35 42 b1 50 b6 76 ba 9e 36 a7 3f ae b3 56 b1
       0.3467 -0.1643 -0.3945 -0.8076 0.4136 1.913 -0.24 -0.1667
000080 87 b4 6e a2 0f 38 d1 33 77 bc 9c bc c7 40 be bd
       -0.283 -0.01256 0.5073 0.2443 -1.116 -1.152 2.389 -1.436
000090 12 c0 69 3d bc 3c ec b9 f4 b4 3c 37 a1 ba a6 af
       -2.035 1.353 1.184 -0.74 -0.3096 0.4521 -0.8286 -0.1195
0000a0 bd bd b8 bd fa 3b 61 3e 36 c0 76 34 b5 3d fc b4
       -1.435 -1.43 0.997 1.595 -2.105 0.2788 1.427 -0.3115
0000b0 e9 32 95 a1 98 3a 7a 36 31 3c 05 3e 8e 39 2d b4
       0.216 -0.0109 0.824 0.4048 1.048 1.505 0.6943 -0.261
0000c0 19 35 b5 bc 92 37 f6 3b c4 35 1d bc ad 38 22 3e
       0.3186 -1.177 0.4731 0.995 0.3604 -1.028 0.5845 1.533
0000d0 84 3d
       1.379

int16_35 i2 [3, 5]
000000 63 00 5f 00 57 00 3d 00 20 00 40 00 4b 00 5a 00
       99 95 87 61 32 64 75 90
000010 31 00 2a 00 1f 00 06 00 51 00 0b 00 16 00
       49 42 31 6 81 11 22

int16_357 i2 [3, 5, 7]
000000 56 00 5b 00 17 00 59 00 38 00 51 00 61 00 3f 00
       86 91 23 89 56 81 97 63
000010 0d 00 38 00 41 00 0f 00 5e 00 43 00 2e 00 47 00
       13 56 65 15 94 67 46 71
000020 33 00 3e 00 28 00 14 00 49 00 34 00 5e 00 52 00
       51 62 40 20 73 52 94 82
000030 46 00 61 00 21 00 0b 00 1c 00 4a 00 13 00 5d 00
       70 97 33 11 28 74 19 93
000040 59 00 35 00 59 00 1f 00 1d 00 42 00 34 00 21 00
       89 53 89 31 29 66 52 33
000050 52 00 38 00 5b 00 61 00 0e 00 51 00 60 00 2e 00
       82 56 91 97 14 81 96 46
000060 2c 00 00 00 10 00 41 00 05 00 20 00 3d 00 05 00
       44 0 16 65 5 32 61 5
000070 14 00 25 00 17 00 39 00 12 00 06 00 17 00 3c 00
       20 37 23 57 18 6 23 60
000080 23 00 5c 00 44 00 50 00 04 00 04 00 1d 00 1e 00
       35 92 68 80 4 4 29 30
000090 5e 00 10 00 53 00 3d 00 15 00 2f 00 20 00 2e 00
       94 16 83 61 21 47 32 46
0000a0 1f 00 4e 00 4b 00 2c 00 13 00 20 00 46 00 55 00
       31 78 75 44 19 32 70 85
0000b0 5f 00 40 00 48 00 55 00 41 00 1f 00 0e 00 38 00
       95 64 72 85 65 31 14 56
0000c0 1d 00 49 00 5c 00 08 00 0a 00 4e 00 52 00 09 00
       29 73 92 8 10 78 82 9
0000d0 39 00
       57

int8_35 i1 [3, 5]
000000 2b 22 45 36 3e 59 15 20 5c 60 5e 17 17 0d 17
       43 34 69 54 62 89 21 32 92 96 94 23 23 13 23

int8_357 i1 [3, 5, 7]
000000 26 3b 45 3c 22 14 0e 07 1c 13 23 2a 3b 62 28 44
       38 59 69 60 34 20 14 7 28 19 35 42 59 98 40 68
000010 1c 62 0d 1c 1d 49 3b 49 5a 16 31 4b 5b 15 3c 06
       28 98 13 28 29 73 59 73 90 22 49 75 91 21 60 6
000020 03 16 61 52 1e 33 16 2e 19 59 5a 58 4c 43 4e 33
       3 22 97 82 30 51 22 46 25 89 90 88 76 67 78 51
000030 4a 20 45 58 54 57 2c 51 3c 3f 4d 0f 49 47 3b 28
       74 32 69 88 84 87 44 81 60 63 77 15 73 71 59 40
000040 06 57 43 0c 00 14 27 2c 5c 5c 41 58 39 49 05 2f
       6 87 67 12 0 20 39 44 92 92 65 88 57 73 5 47
000050 3b 29 0a 0e 02 56 44 30 53 60 0d 33 15 4b 12 20
       59 41 10 14 2 86 68 48 83 96 13 51 21 75 18 32
000060 1e 2e 02 48 00 40 05 01 17
       30 46 2 72 0 64 5 1 23

uint8_35 u1 [3, 5]
000000 38 55 20 52 39 17 01 28 3b 28 3c 07 37 53 52
       56 85 32 82 57 23 1 40 59 40 60 7 55 83 82

uint8_357 u1 [3, 5, 7]
000000 35 59 13 53 23 50 0c 47 53 02 59 1c 10 0f 00 1e
       53 89 19 83 35 80 12 71 83 2 89 28 16 15 0 30
000010 3c 44 28 17 22 2b 27 16 1e 04 53 45 5b 0d 2e 2c
       60 68 40 23 34 43 39 22 30 4 83 69 91 13 46 44
000020 24 58 30 49 2c 05 5c 0f 36 53 29 58 52 15 2c 38
       36 88 48 73 44 5 92 15 54 83 41 88 82 21 44 56
000030 19 0b 48 5b 53 5c 2c 2a 49 07 01 37 04 4b 5d 40
       25 11 72 91 83 92 44 42 73 7 1 55 4 75 93 64
000040 1c 57 1b 1f 26 38 13 56 26 4b 5e 61 23 1b 62 45
       28 87 27 31 38 56 19 86 38 75 94 97 35 27 98 69
000050 0b 38 32 03 27 49 49 51 19 17 2d 22 46 4c 30 35
       11 56 50 3 39 73 73 81 25 23 45 34 70 76 48 53
000060 57 0b 00 60 37 0f 40 3f 1f
       87 11 0 96 55 15 64 63 31
