test/non_sharded/model.numpy.safetensors (safetensors, 5661 bytes, 17 tensors)

float64_3 f8 [3]
0	0x0000000000000000	0.0
1	0x3ff0000000000000	1.0
2	0x4000000000000000	2.0

float64_35 f8 [3, 5]
0	0x0000000000000000	0.0
1	0x3ff0000000000000	1.0
2	0x4000000000000000	2.0
3	0x4008000000000000	3.0
4	0x4010000000000000	4.0
5	0x4014000000000000	5.0
6	0x4018000000000000	6.0
7	0x401c000000000000	7.0
8	0x4020000000000000	8.0
9	0x4022000000000000	9.0
10	0x4024000000000000	10.0
11	0x4026000000000000	11.0
12	0x4028000000000000	12.0
13	0x402a000000000000	13.0
14	0x402c000000000000	14.0

float64_357 f8 [3, 5, 7]
0	0x0000000000000000	0.0
1	0x3ff0000000000000	1.0
2	0x4000000000000000	2.0
3	0x4008000000000000	3.0
4	0x4010000000000000	4.0
5	0x4014000000000000	5.0
6	0x4018000000000000	6.0
7	0x401c000000000000	7.0
8	0x4020000000000000	8.0
9	0x4022000000000000	9.0
10	0x4024000000000000	10.0
11	0x4026000000000000	11.0
12	0x4028000000000000	12.0
13	0x402a000000000000	13.0
14	0x402c000000000000	14.0
15	0x402e000000000000	15.0
16	0x4030000000000000	16.0
17	0x4031000000000000	17.0
18	0x4032000000000000	18.0
19	0x4033000000000000	19.0
20	0x4034000000000000	20.0
21	0x4035000000000000	21.0
22	0x4036000000000000	22.0
23	0x4037000000000000	23.0
24	0x4038000000000000	24.0
25	0x4039000000000000	25.0
26	0x403a000000000000	26.0
27	0x403b000000000000	27.0
28	0x403c000000000000	28.0
29	0x403d000000000000	29.0
30	0x403e000000000000	30.0
31	0x403f000000000000	31.0
32	0x4040000000000000	32.0
33	0x4040800000000000	33.0
34	0x4041000000000000	34.0
35	0x4041800000000000	35.0
36	0x4042000000000000	36.0
37	0x4042800000000000	37.0
38	0x4043000000000000	38.0
39	0x4043800000000000	39.0
40	0x4044000000000000	40.0
41	0x4044800000000000	41.0
42	0x4045000000000000	42.0
43	0x4045800000000000	43.0
44	0x4046000000000000	44.0
45	0x4046800000000000	45.0
46	0x4047000000000000	46.0
47	0x4047800000000000	47.0
48	0x4048000000000000	48.0
49	0x4048800000000000	49.0
50	0x4049000000000000	50.0
51	0x4049800000000000	51.0
52	0x404a000000000000	52.0
53	0x404a800000000000	53.0
54	0x404b000000000000	54.0
55	0x404b800000000000	55.0
56	0x404c000000000000	56.0
57	0x404c800000000000	57.0
58	0x404d000000000000	58.0
59	0x404d800000000000	59.0
60	0x404e000000000000	60.0
61	0x404e800000000000	61.0
62	0x404f000000000000	62.0
63	0x404f800000000000	63.0
64	0x4050000000000000	64.0
65	0x4050400000000000	65.0
66	0x4050800000000000	66.0
67	0x4050c00000000000	67.0
68	0x4051000000000000	68.0
69	0x4051400000000000	69.0
70	0x4051800000000000	70.0
71	0x4051c00000000000	71.0
72	0x4052000000000000	72.0
73	0x4052400000000000	73.0
74	0x4052800000000000	74.0
75	0x4052c00000000000	75.0
76	0x4053000000000000	76.0
77	0x4053400000000000	77.0
78	0x4053800000000000	78.0
79	0x4053c00000000000	79.0
80	0x4054000000000000	80.0
81	0x4054400000000000	81.0
82	0x4054800000000000	82.0
83	0x4054c00000000000	83.0
84	0x4055000000000000	84.0
85	0x4055400000000000	85.0
86	0x4055800000000000	86.0
87	0x4055c00000000000	87.0
88	0x4056000000000000	88.0
89	0x4056400000000000	89.0
90	0x4056800000000000	90.0
91	0x4056c00000000000	91.0
92	0x4057000000000000	92.0
93	0x4057400000000000	93.0
94	0x4057800000000000	94.0
95	0x4057c00000000000	95.0
96	0x4058000000000000	96.0
97	0x4058400000000000	97.0
98	0x4058800000000000	98.0
99	0x4058c00000000000	99.0
100	0x4059000000000000	100.0
101	0x4059400000000000	101.0
102	0x4059800000000000	102.0
103	0x4059c00000000000	103.0
104	0x405a000000000000	104.0

float32_3 f4 [3]
0	0x00000000	0.0
1	0x3f800000	1.0
2	0x40000000	2.0

float32_35 f4 [3, 5]
0	0x00000000	0.0
1	0x3f800000	1.0
2	0x40000000	2.0
3	0x40400000	3.0
4	0x40800000	4.0
5	0x40a00000	5.0
6	0x40c00000	6.0
7	0x40e00000	7.0
8	0x41000000	8.0
9	0x41100000	9.0
10	0x41200000	10.0
11	0x41300000	11.0
12	0x41400000	12.0
13	0x41500000	13.0
14	0x41600000	14.0

float32_357 f4 [3, 5, 7]
0	0x00000000	0.0
1	0x3f800000	1.0
2	0x40000000	2.0
3	0x40400000	3.0
4	0x40800000	4.0
5	0x40a00000	5.0
6	0x40c00000	6.0
7	0x40e00000	7.0
8	0x41000000	8.0
9	0x41100000	9.0
10	0x41200000	10.0
11	0x41300000	11.0
12	0x41400000	12.0
13	0x41500000	13.0
14	0x41600000	14.0
15	0x41700000	15.0
16	0x41800000	16.0
17	0x41880000	17.0
18	0x41900000	18.0
19	0x41980000	19.0
20	0x41a00000	20.0
21	0x41a80000	21.0
22	0x41b00000	22.0
23	0x41b80000	23.0
24	0x41c00000	24.0
25	0x41c80000	25.0
26	0x41d00000	26.0
27	0x41d80000	27.0
28	0x41e00000	28.0
29	0x41e80000	29.0
30	0x41f00000	30.0
31	0x41f80000	31.0
32	0x42000000	32.0
33	0x42040000	33.0
34	0x42080000	34.0
35	0x420c0000	35.0
36	0x42100000	36.0
37	0x42140000	37.0
38	0x42180000	38.0
39	0x421c0000	39.0
40	0x42200000	40.0
41	0x42240000	41.0
42	0x42280000	42.0
43	0x422c0000	43.0
44	0x42300000	44.0
45	0x42340000	45.0
46	0x42380000	46.0
47	0x423c0000	47.0
48	0x42400000	48.0
49	0x42440000	49.0
50	0x42480000	50.0
51	0x424c0000	51.0
52	0x42500000	52.0
53	0x42540000	53.0
54	0x42580000	54.0
55	0x425c0000	55.0
56	0x42600000	56.0
57	0x42640000	57.0
58	0x42680000	58.0
59	0x426c0000	59.0
60	0x42700000	60.0
61	0x42740000	61.0
62	0x42780000	62.0
63	0x427c0000	63.0
64	0x42800000	64.0
65	0x42820000	65.0
66	0x42840000	66.0
67	0x42860000	67.0
68	0x42880000	68.0
69	0x428a0000	69.0
70	0x428c0000	70.0
71	0x428e0000	71.0
72	0x42900000	72.0
73	0x42920000	73.0
74	0x42940000	74.0
75	0x42960000	75.0
76	0x42980000	76.0
77	0x429a0000	77.0
78	0x429c0000	78.0
79	0x429e0000	79.0
80	0x42a00000	80.0
81	0x42a20000	81.0
82	0x42a40000	82.0
83	0x42a60000	83.0
84	0x42a80000	84.0
85	0x42aa0000	85.0
86	0x42ac0000	86.0
87	0x42ae0000	87.0
88	0x42b00000	88.0
89	0x42b20000	89.0
90	0x42b40000	90.0
91	0x42b60000	91.0
92	0x42b80000	92.0
93	0x42ba0000	93.0
94	0x42bc0000	94.0
95	0x42be0000	95.0
96	0x42c00000	96.0
97	0x42c20000	97.0
98	0x42c40000	98.0
99	0x42c60000	99.0
100	0x42c80000	100.0
101	0x42ca0000	101.0
102	0x42cc0000	102.0
103	0x42ce0000	103.0
104	0x42d00000	104.0

int32_3 i4 [3]
0	0x00000000	0
1	0x00000001	1
2	0x00000002	2

int32_35 i4 [3, 5]
0	0x00000000	0
1	0x00000001	1
2	0x00000002	2
3	0x00000003	3
4	0x00000004	4
5	0x00000005	5
6	0x00000006	6
7	0x00000007	7
8	0x00000008	8
9	0x00000009	9
10	0x0000000a	10
11	0x0000000b	11
12	0x0000000c	12
13	0x0000000d	13
14	0x0000000e	14

int32_357 i4 [3, 5, 7]
0	0x00000000	0
1	0x00000001	1
2	0x00000002	2
3	0x00000003	3
4	0x00000004	4
5	0x00000005	5
6	0x00000006	6
7	0x00000007	7
8	0x00000008	8
9	0x00000009	9
10	0x0000000a	10
11	0x0000000b	11
12	0x0000000c	12
13	0x0000000d	13
14	0x0000000e	14
15	0x0000000f	15
16	0x00000010	16
17	0x00000011	17
18	0x00000012	18
19	0x00000013	19
20	0x00000014	20
21	0x00000015	21
22	0x00000016	22
23	0x00000017	23
24	0x00000018	24
25	0x00000019	25
26	0x0000001a	26
27	0x0000001b	27
28	0x0000001c	28
29	0x0000001d	29
30	0x0000001e	30
31	0x0000001f	31
32	0x00000020	32
33	0x00000021	33
34	0x00000022	34
35	0x00000023	35
36	0x00000024	36
37	0x00000025	37
38	0x00000026	38
39	0x00000027	39
40	0x00000028	40
41	0x00000029	41
42	0x0000002a	42
43	0x0000002b	43
44	0x0000002c	44
45	0x0000002d	45
46	0x0000002e	46
47	0x0000002f	47
48	0x00000030	48
49	0x00000031	49
50	0x00000032	50
51	0x00000033	51
52	0x00000034	52
53	0x00000035	53
54	0x00000036	54
55	0x00000037	55
56	0x00000038	56
57	0x00000039	57
58	0x0000003a	58
59	0x0000003b	59
60	0x0000003c	60
61	0x0000003d	61
62	0x0000003e	62
63	0x0000003f	63
64	0x00000040	64
65	0x00000041	65
66	0x00000042	66
67	0x00000043	67
68	0x00000044	68
69	0x00000045	69
70	0x00000046	70
71	0x00000047	71
72	0x00000048	72
73	0x00000049	73
74	0x0000004a	74
75	0x0000004b	75
76	0x0000004c	76
77	0x0000004d	77
78	0x0000004e	78
79	0x0000004f	79
80	0x00000050	80
81	0x00000051	81
82	0x00000052	82
83	0x00000053	83
84	0x00000054	84
85	0x00000055	85
86	0x00000056	86
87	0x00000057	87
88	0x00000058	88
89	0x00000059	89
90	0x0000005a	90
91	0x0000005b	91
92	0x0000005c	92
93	0x0000005d	93
94	0x0000005e	94
95	0x0000005f	95
96	0x00000060	96
97	0x00000061	97
98	0x00000062	98
99	0x00000063	99
100	0x00000064	100
101	0x00000065	101
102	0x00000066	102
103	0x00000067	103
104	0x00000068	104

float16_35 f2 [3, 5]
0	0x0000	0.0
1	0x3c00	1.0
2	0x4000	2.0
3	0x4200	3.0
4	0x4400	4.0
5	0x4500	5.0
6	0x4600	6.0
7	0x4700	7.0
8	0x4800	8.0
9	0x4880	9.0
10	0x4900	10.0
11	0x4980	11.0
12	0x4a00	12.0
13	0x4a80	13.0
14	0x4b00	14.0

float16_357 f2 [3, 5, 7]
0	0x0000	0.0
1	0x3c00	1.0
2	0x4000	2.0
3	0x4200	3.0
4	0x4400	4.0
5	0x4500	5.0
6	0x4600	6.0
7	0x4700	7.0
8	0x4800	8.0
9	0x4880	9.0
10	0x4900	10.0
11	0x4980	11.0
12	0x4a00	12.0
13	0x4a80	13.0
14	0x4b00	14.0
15	0x4b80	15.0
16	0x4c00	16.0
17	0x4c40	17.0
18	0x4c80	18.0
19	0x4cc0	19.0
20	0x4d00	20.0
21	0x4d40	21.0
22	0x4d80	22.0
23	0x4dc0	23.0
24	0x4e00	24.0
25	0x4e40	25.0
26	0x4e80	26.0
27	0x4ec0	27.0
28	0x4f00	28.0
29	0x4f40	29.0
30	0x4f80	30.0
31	0x4fc0	31.0
32	0x5000	32.0
33	0x5020	33.0
34	0x5040	34.0
35	0x5060	35.0
36	0x5080	36.0
37	0x50a0	37.0
38	0x50c0	38.0
39	0x50e0	39.0
40	0x5100	40.0
41	0x5120	41.0
42	0x5140	42.0
43	0x5160	43.0
44	0x5180	44.0
45	0x51a0	45.0
46	0x51c0	46.0
47	0x51e0	47.0
48	0x5200	48.0
49	0x5220	49.0
50	0x5240	50.0
51	0x5260	51.0
52	0x5280	52.0
53	0x52a0	53.0
54	0x52c0	54.0
55	0x52e0	55.0
56	0x5300	56.0
57	0x5320	57.0
58	0x5340	58.0
59	0x5360	59.0
60	0x5380	60.0
61	0x53a0	61.0
62	0x53c0	62.0
63	0x53e0	63.0
64	0x5400	64.0
65	0x5410	65.0
66	0x5420	66.0
67	0x5430	67.0
68	0x5440	68.0
69	0x5450	69.0
70	0x5460	70.0
71	0x5470	71.0
72	0x5480	72.0
73	0x5490	73.0
74	0x54a0	74.0
75	0x54b0	75.0
76	0x54c0	76.0
77	0x54d0	77.0
78	0x54e0	78.0
79	0x54f0	79.0
80	0x5500	80.0
81	0x5510	81.0
82	0x5520	82.0
83	0x5530	83.0
84	0x5540	84.0
85	0x5550	85.0
86	0x5560	86.0
87	0x5570	87.0
88	0x5580	88.0
89	0x5590	89.0
90	0x55a0	90.0
91	0x55b0	91.0
92	0x55c0	92.0
93	0x55d0	93.0
94	0x55e0	94.0
95	0x55f0	95.0
96	0x5600	96.0
97	0x5610	97.0
98	0x5620	98.0
99	0x5630	99.0
100	0x5640	100.0
101	0x5650	101.0
102	0x5660	102.0
103	0x5670	103.0
104	0x5680	104.0

int16_35 i2 [3, 5]
0	0x0000	0
1	0x0001	1
2	0x0002	2
3	0x0003	3
4	0x0004	4
5	0x0005	5
6	0x0006	6
7	0x0007	7
8	0x0008	8
9	0x0009	9
10	0x000a	10
11	0x000b	11
12	0x000c	12
13	0x000d	13
14	0x000e	14

int16_357 i2 [3, 5, 7]
0	0x0000	0
1	0x0001	1
2	0x0002	2
3	0x0003	3
4	0x0004	4
5	0x0005	5
6	0x0006	6
7	0x0007	7
8	0x0008	8
9	0x0009	9
10	0x000a	10
11	0x000b	11
12	0x000c	12
13	0x000d	13
14	0x000e	14
15	0x000f	15
16	0x0010	16
17	0x0011	17
18	0x0012	18
19	0x0013	19
20	0x0014	20
21	0x0015	21
22	0x0016	22
23	0x0017	23
24	0x0018	24
25	0x0019	25
26	0x001a	26
27	0x001b	27
28	0x001c	28
29	0x001d	29
30	0x001e	30
31	0x001f	31
32	0x0020	32
33	0x0021	33
34	0x0022	34
35	0x0023	35
36	0x0024	36
37	0x0025	37
38	0x0026	38
39	0x0027	39
40	0x0028	40
41	0x0029	41
42	0x002a	42
43	0x002b	43
44	0x002c	44
45	0x002d	45
46	0x002e	46
47	0x002f	47
48	0x0030	48
49	0x0031	49
50	0x0032	50
51	0x0033	51
52	0x0034	52
53	0x0035	53
54	0x0036	54
55	0x0037	55
56	0x0038	56
57	0x0039	57
58	0x003a	58
59	0x003b	59
60	0x003c	60
61	0x003d	61
62	0x003e	62
63	0x003f	63
64	0x0040	64
65	0x0041	65
66	0x0042	66
67	0x0043	67
68	0x0044	68
69	0x0045	69
70	0x0046	70
71	0x0047	71
72	0x0048	72
73	0x0049	73
74	0x004a	74
75	0x004b	75
76	0x004c	76
77	0x004d	77
78	0x004e	78
79	0x004f	79
80	0x0050	80
81	0x0051	81
82	0x0052	82
83	0x0053	83
84	0x0054	84
85	0x0055	85
86	0x0056	86
87	0x0057	87
88	0x0058	88
89	0x0059	89
90	0x005a	90
91	0x005b	91
92	0x005c	92
93	0x005d	93
94	0x005e	94
95	0x005f	95
96	0x0060	96
97	0x0061	97
98	0x0062	98
99	0x0063	99
100	0x0064	100
101	0x0065	101
102	0x0066	102
103	0x0067	103
104	0x0068	104

int8_35 i1 [3, 5]
0	0x00	0
1	0x01	1
2	0x02	2
3	0x03	3
4	0x04	4
5	0x05	5
6	0x06	6
7	0x07	7
8	0x08	8
9	0x09	9
10	0x0a	10
11	0x0b	11
12	0x0c	12
13	0x0d	13
14	0x0e	14

int8_357 i1 [3, 5, 7]
0	0x00	0
1	0x01	1
2	0x02	2
3	0x03	3
4	0x04	4
5	0x05	5
6	0x06	6
7	0x07	7
8	0x08	8
9	0x09	9
10	0x0a	10
11	0x0b	11
12	0x0c	12
13	0x0d	13
14	0x0e	14
15	0x0f	15
16	0x10	16
17	0x11	17
18	0x12	18
19	0x13	19
20	0x14	20
21	0x15	21
22	0x16	22
23	0x17	23
24	0x18	24
25	0x19	25
26	0x1a	26
27	0x1b	27
28	0x1c	28
29	0x1d	29
30	0x1e	30
31	0x1f	31
32	0x20	32
33	0x21	33
34	0x22	34
35	0x23	35
36	0x24	36
37	0x25	37
38	0x26	38
39	0x27	39
40	0x28	40
41	0x29	41
42	0x2a	42
43	0x2b	43
44	0x2c	44
45	0x2d	45
46	0x2e	46
47	0x2f	47
48	0x30	48
49	0x31	49
50	0x32	50
51	0x33	51
52	0x34	52
53	0x35	53
54	0x36	54
55	0x37	55
56	0x38	56
57	0x39	57
58	0x3a	58
59	0x3b	59
60	0x3c	60
61	0x3d	61
62	0x3e	62
63	0x3f	63
64	0x40	64
65	0x41	65
66	0x42	66
67	0x43	67
68	0x44	68
69	0x45	69
70	0x46	70
71	0x47	71
72	0x48	72
73	0x49	73
74	0x4a	74
75	0x4b	75
76	0x4c	76
77	0x4d	77
78	0x4e	78
79	0x4f	79
80	0x50	80
81	0x51	81
82	0x52	82
83	0x53	83
84	0x54	84
85	0x55	85
86	0x56	86
87	0x57	87
88	0x58	88
89	0x59	89
90	0x5a	90
91	0x5b	91
92	0x5c	92
93	0x5d	93
94	0x5e	94
95	0x5f	95
96	0x60	96
97	0x61	97
98	0x62	98
99	0x63	99
100	0x64	100
101	0x65	101
102	0x66	102
103	0x67	103
104	0x68	104

uint8_35 u1 [3, 5]
0	0x00	0
1	0x01	1
2	0x02	2
3	0x03	3
4	0x04	4
5	0x05	5
6	0x06	6
7	0x07	7
8	0x08	8
9	0x09	9
10	0x0a	10
11	0x0b	11
12	0x0c	12
13	0x0d	13
14	0x0e	14

uint8_357 u1 [3, 5, 7]
0	0x00	0
1	0x01	1
2	0x02	2
3	0x03	3
4	0x04	4
5	0x05	5
6	0x06	6
7	0x07	7
8	0x08	8
9	0x09	9
10	0x0a	10
11	0x0b	11
12	0x0c	12
13	0x0d	13
14	0x0e	14
15	0x0f	15
16	0x10	16
17	0x11	17
18	0x12	18
19	0x13	19
20	0x14	20
21	0x15	21
22	0x16	22
23	0x17	23
24	0x18	24
25	0x19	25
26	0x1a	26
27	0x1b	27
28	0x1c	28
29	0x1d	29
30	0x1e	30
31	0x1f	31
32	0x20	32
33	0x21	33
34	0x22	34
35	0x23	35
36	0x24	36
37	0x25	37
38	0x26	38
39	0x27	39
40	0x28	40
41	0x29	41
42	0x2a	42
43	0x2b	43
44	0x2c	44
45	0x2d	45
46	0x2e	46
47	0x2f	47
48	0x30	48
49	0x31	49
50	0x32	50
51	0x33	51
52	0x34	52
53	0x35	53
54	0x36	54
55	0x37	55
56	0x38	56
57	0x39	57
58	0x3a	58
59	0x3b	59
60	0x3c	60
61	0x3d	61
62	0x3e	62
63	0x3f	63
64	0x40	64
65	0x41	65
66	0x42	66
67	0x43	67
68	0x44	68
69	0x45	69
70	0x46	70
71	0x47	71
72	0x48	72
73	0x49	73
74	0x4a	74
75	0x4b	75
76	0x4c	76
77	0x4d	77
78	0x4e	78
79	0x4f	79
80	0x50	80
81	0x51	81
82	0x52	82
83	0x53	83
84	0x54	84
85	0x55	85
86	0x56	86
87	0x57	87
88	0x58	88
89	0x59	89
90	0x5a	90
91	0x5b	91
92	0x5c	92
93	0x5d	93
94	0x5e	94
95	0x5f	95
96	0x60	96
97	0x61	97
98	0x62	98
99	0x63	99
100	0x64	100
101	0x65	101
102	0x66	102
103	0x67	103
104	0x68	104
