test/non_sharded/model.safetensors (safetensors, 6841 bytes, 19 tensors)

float64_3 f8 [3]
0	0x3fb87f09da112bbb	0.09568845342543757
1	0xbfb8a49b7b67446e	-0.09626170885828042
2	0xbfe8c7dc60665013	-0.7743970759206625

float64_35 f8 [3, 5]
0	0xbfe01dd743883ee7	-0.5036426848400567
1	0x3fd91ad438b3c35f	0.3922625116093083
2	0x3fc9ab434589fc90	0.20053902526339984
3	0x3ff489726a631458	1.283556380819638
4	0xbfd262027acf34e7	-0.2872320365248257
5	0xbfe1ced994242446	-0.5565002339727776
6	0x3fe9f8d92c5f76c9	0.8116269938143087
7	0x3ff843d7c7bc4a78	1.5165632059257899
8	0x3ff0fdb9635f9dc3	1.0619443780686744
9	0xbfefa06d46101fde	-0.9883333557527256
10	0x3ff859b4c77bf4d0	1.521900920138524
11	0x3fd763bccc64a3e7	0.3654624935175534
12	0xbfcb9337261f03e5	-0.21543015824684555
13	0x3ff5324bc7a0c975	1.3247793004962578
14	0xbfe0cdd885fb8f4d	-0.5251276604508149

float64_357 f8 [3, 5, 7]
0	0x3fe86982776c94e8	0.7628795940878748
1	0xbff27310136d0d88	-1.153091503031506
2	0x3ffd0f08985dddbb	1.8161703063795887
3	0xbf8c2f54ca0833da	-0.013762152114418603
4	0xbfed03d9f93b4fdc	-0.9067201488310235
5	0x3fda7e9c47ce54b0	0.41397768986036976
6	0xbfe29b9172e9a24a	-0.5814902538668971
7	0x3ff4697f985f42ab	1.2757564498935305
8	0x3ffeacabd30d2919	1.9171560520358695
9	0xbfec683afe08fe2a	-0.8877234422324751
10	0x3fd3eff126a10bce	0.31151989719745365
11	0xbfe4291d9b822c62	-0.630019000747222
12	0x3ff45de71bff8a34	1.2729254811935222
13	0xbfed499829c2ddac	-0.9152336898468341
14	0x3feea348650573f4	0.9574319813797261
15	0x3ff32a4c0cb7eee0	1.1978264328781094
16	0xbfe4724526a3cf2c	-0.638948989361301
17	0xbff8a093d7ab375d	-1.5392034935534504
18	0xbff47e0cf83d9f25	-1.280774087610504
19	0x3ff7e36dbb38ab2f	1.493024569829412
20	0x3fcd03ca42785e02	0.22667816396345591
21	0x3ff688ad96638e7c	1.408368670899022
22	0x3fe308223ae6bae3	0.5947428846755795
23	0xbff0af720cf91c2e	-1.0428333765755826
24	0x3fd7f090ffd21150	0.3740580080268687
25	0xbffa2c1ba45e19be	-1.6357685490234952
26	0x3fcb9b17ce37fe3a	0.21567056245111066
27	0xbfdbc2db9b5576ce	-0.4337681786472388
28	0xbfe417d28f820fbd	-0.6279080202953008
29	0xbfc7e0f353024371	-0.18655244401136487
30	0x3fe01598701ecbc6	0.5026361646508739
31	0xbfc0b219faca8baa	-0.13043522592223883
32	0xbfde94139d5461db	-0.477787879602628
33	0xbfb5fa73a21358e5	-0.08585283953593466
34	0x3ff8a1701da05aa0	1.539413562515314
35	0x3fcd71fb8d2fe543	0.23004097360516526
36	0xbfc86f88e454dd97	-0.190903769960397
37	0x3fe6191ae1b18f4c	0.6905645759656891
38	0x3ff0f29b362e98f7	1.0592300526128022
39	0xbfa3331226ff2368	-0.03749901510270243
40	0xbfd0379e7af7dadc	-0.2533947182522931
41	0xbfceac6d8a211330	-0.23963708157148167
42	0xbfb1f8d326020091	-0.07020301511693307
43	0x3fec5187020066ea	0.8849520720570727
44	0x3fe8135ab1682274	0.7523625817276085
45	0x3ff46ca3bde0132f	1.27652334375416
46	0x3fe8f1d157e133e0	0.7795187679672573
47	0x3fe430e8a300271c	0.630970304832974
48	0xbff36d74008cf049	-1.2142219563966299
49	0x3ff57ebe9ee1787c	1.343443508747014
50	0x3ff37679602e71fb	1.216424346646021
51	0x3fb0cc6dc3143479	0.06561933529538234
52	0xbff0093d0748e3be	-1.0022554668960164
53	0xbfc3d0d1f76df8d0	-0.15481018620989184
54	0xbfe9214871de51ae	-0.7853128646843766
55	0x3fd15356ea124fc6	0.27071163996265246
56	0x3ff057b76334ee76	1.0214151263488964
57	0x3fd511627c7fce87	0.32918607862595944
58	0x3fe446407b4fac7e	0.6335756691381815
59	0xbfd851a08f1d529f	-0.3799821279147099
60	0xbfe25685e3444b64	-0.5730618895343977
61	0xbff148df2518d40c	-1.080290932569599
62	0xbfc878dd10b26a24	-0.1911884624031056
63	0xbfcd9f173f9c75ad	-0.23141756635679425
64	0xbf925c4d4cc2775d	-0.017930229005848165
65	0xbfeafb0022283f8f	-0.8431397120602798
66	0x3ff196440ef0814e	1.0991859992573896
67	0xbfee6bc88fe35dce	-0.9506571588817054
68	0x3fe8758f42368cb4	0.7643505376076036
69	0x3fd943a50bea73b2	0.39475370563178125
70	0x3fd0989d9e8a8281	0.2593149231197814
71	0xbf8bf0adf92f02fb	-0.013642653624516657
72	0x3ffaed4fd6353a1e	1.682937466382675
73	0x3f95773bf94b009d	0.02096265515388095
74	0x3ff7682669febb67	1.4629272594863438
75	0x3fce18ac448577d9	0.23512795778054743
76	0x3fd869ca35e6af61	0.3814569021585524
77	0x3fd9b4cd5b6d6846	0.4016602890820916
78	0x3feebb49290028a8	0.9603620339196555
79	0xbfe884e7934bbbcd	-0.7662237049934163
80	0xbff0330cf5f219cd	-1.01246353218595
81	0x3ff364acd1de2dfc	1.2120788763012333
82	0x3ff7985dd1b1c05b	1.4746988478837213
83	0xbfe7cd4f81dce9d9	-0.7438123260865793
84	0x3fc061bc3706c012	0.12798264204821003
85	0xbffa7ff99d05f101	-1.656243909236821
86	0x3fe1c7f03386b67c	0.5556565290805362
87	0x3ff1c29ab7530ddb	1.1100108300314477
88	0x3ff2b138b83a2ef3	1.1682669826868135
89	0xbfa10470cbd6c189	-0.03323700416820247
90	0x3fcdb895310a0c59	0.23219551939482377
91	0x3ff75eaacfbd1259	1.4606121172702358
92	0x3fd1c0326ac83350	0.27735577037747294
93	0x3fbdcaebf233e25c	0.1163775888743514
94	0xbfedbc46eaad3aac	-0.9292330344704474
95	0xbfefcbc26d5a24af	-0.9936229835303915
96	0xbfd98b7ec77f09c8	-0.39913911325507145
97	0xbfed4ea542329132	-0.915850285808608
98	0x3fef9f7d52916a57	0.9882189381272138
99	0xbfee13be7aa0a2ca	-0.9399101634090468
100	0xbfa976439719b1ed	-0.049730407900685815
101	0x3ff4b7fa51087e92	1.2949164548262257
102	0x3fe37e8a95ca9d0d	0.6091969419111664
103	0x3ff964d7d18132e0	1.5871198829437887
104	0xbfe53b4f2141b3ca	-0.6634898805183351

float32_3 f4 [3]
0	0x3c59f7de	0.013303725
1	0x3f14fd14	0.58198667
2	0x3ef31343	0.47475633

float32_35 f4 [3, 5]
0	0xbf291e29	-0.66061646
1	0x3e9a7316	0.3016593
2	0xbe04db5c	-0.12974304
3	0xbfb9c1fd	-1.4512326
4	0x400491ff	2.071411
5	0xbf74872e	-0.9551877
6	0xbf08d46e	-0.5344914
7	0x3f8abc51	1.083872
8	0x3f36e037	0.71435875
9	0xbc22bf9d	-0.0099333795
10	0x3f9ec0f6	1.2402637
11	0xbf9a739b	-1.206653
12	0xbfb6181b	-1.4226106
13	0x3e4749a0	0.1946168
14	0xbf81440d	-1.0098892

float32_357 f4 [3, 5, 7]
0	0x3f94eb70	1.163435
1	0xbf299a35	-0.66250926
2	0x3ed8f5ed	0.42375126
3	0x3f54e407	0.8316044
4	0xbfce2370	-1.6104565
5	0xbf2aa626	-0.6665977
6	0x3fc91843	1.5710529
7	0xbed7c556	-0.42142743
8	0xc0633194	-3.549901
9	0xbf3838d7	-0.7196173
10	0xbfc47fd1	-1.5351506
11	0x3fedfb28	1.8592272
12	0xbfb5f50e	-1.421541
13	0x3fa7a770	1.3097973
14	0xbf51d3f7	-0.8196406
15	0xbeeafdf3	-0.45896873
16	0xc007b9cf	-2.1207159
17	0x3fa99c3b	1.3250803
18	0x3fdea38e	1.7393663
19	0x3e7fe9d4	0.24991542
20	0x3f83ae60	1.028759
21	0xbf8a273a	-1.0793221
22	0xbef62eac	-0.48082483
23	0xc00dacdd	-2.2136757
24	0x3e640840	0.22268772
25	0x3f545617	0.8294386
26	0xbe3cbd66	-0.18431625
27	0xbe6e72e0	-0.23286009
28	0x3f2e4bbc	0.6808431
29	0xbed89422	-0.42300516
30	0xbf9412fe	-1.1568296
31	0xbec1ee00	-0.37876892
32	0xbfb0a96f	-1.3801707
33	0xbe9cf8b4	-0.30658495
34	0x3d8ebd4a	0.06969698
35	0xbf07daf5	-0.53068477
36	0x3d309b2c	0.043116733
37	0x3eb37325	0.35048786
38	0x3f0648ae	0.5245465
39	0x3ea5ad2e	0.32358688
40	0x40069314	2.102727
41	0xbf54b9ce	-0.83096015
42	0x3f2f17c7	0.68395656
43	0xbfb0e8a3	-1.3820995
44	0xbe94717f	-0.2899284
45	0xbf68900c	-0.908448
46	0xbe819143	-0.25306138
47	0xbf5a6cad	-0.85322076
48	0xc008c7e6	-2.1372008
49	0xbfd2ba9f	-1.6463202
50	0x3e33bf80	0.1755352
51	0xbe185bf4	-0.14878827
52	0x3ff9f47f	1.9527739
53	0xbdb0c4ee	-0.08631311
54	0xbef75968	-0.483104
55	0x3dbd7afe	0.092519745
56	0xbee14f06	-0.44005603
57	0xbe5d1e0a	-0.2159349
58	0xbfae0ed0	-1.359827
59	0xbf1e7111	-0.61891276
60	0x3e4a9791	0.1978438
61	0x3fdf0411	1.7423116
62	0xbd806dbe	-0.06270932
63	0x3f25cbc4	0.64764047
64	0x3f542e3c	0.8288305
65	0xbfb068eb	-1.3782018
66	0x3d2534a7	0.040333416
67	0xbeb627be	-0.35577196
68	0x3f653143	0.8952829
69	0x3f3c1540	0.73469925
70	0xbf8aa63c	-1.0831981
71	0x3eef415e	0.4672956
72	0xbe8fe1ec	-0.28102052
73	0xbf70fe68	-0.94138193
74	0xbe1753d0	-0.14778066
75	0xbd168bb8	-0.03675434
76	0x3eb3d46a	0.35122997
77	0xbf994165	-1.1973082
78	0x3f6d3cdf	0.92671007
79	0xbe61cf47	-0.22051726
80	0x3ea60eb4	0.32433093
81	0x3f818b6d	1.0120674
82	0x3dfb1757	0.12260311
83	0x3fa4f212	1.2886374
84	0x3f534cb1	0.82538897
85	0xbfeb717f	-1.8394011
86	0x3e77d4f8	0.24202335
87	0x4019b685	2.401765
88	0x3f2796d7	0.6546454
89	0x3e93d3a1	0.28872398
90	0x3f0f77d5	0.56042224
91	0xbf8c2ec9	-1.0951778
92	0xbf5dca48	-0.8663678
93	0xbf363b73	-0.7118446
94	0xbfdd2d21	-1.7279397
95	0xbe882af5	-0.26595274
96	0x3ea6212d	0.32447186
97	0xbfb842e3	-1.4395412
98	0x3fc40667	1.5314454
99	0x3e1a7d3b	0.15086834
100	0xbe5c3ff7	-0.21508776
101	0xbea37126	-0.31922263
102	0xbec6b8fb	-0.38813004
103	0x3dbea31b	0.09308454
104	0x3f20cb4c	0.62810206

int32_3 i4 [3]
0	0x0000002a	42
1	0x0000000d	13
2	0x0000003b	59

int32_35 i4 [3, 5]
0	0x00000034	52
1	0x00000015	21
2	0x0000000f	15
3	0x00000010	16
4	0x0000002b	43
5	0x00000042	66
6	0x00000043	67
7	0x00000001	1
8	0x00000039	57
9	0x00000060	96
10	0x00000053	83
11	0x0000004c	76
12	0x00000010	16
13	0x0000000c	12
14	0x00000012	18

int32_357 i4 [3, 5, 7]
0	0x0000003c	60
1	0x00000062	98
2	0x0000000c	12
3	0x0000003e	62
4	0x00000013	19
5	0x00000010	16
6	0x0000004a	74
7	0x00000019	25
8	0x00000063	99
9	0x00000011	17
10	0x00000019	25
11	0x0000002e	46
12	0x0000000a	10
13	0x0000000f	15
14	0x00000027	39
15	0x00000062	98
16	0x00000003	3
17	0x00000045	69
18	0x00000013	19
19	0x00000033	51
20	0x00000015	21
21	0x00000003	3
22	0x0000002f	47
23	0x00000002	2
24	0x0000003b	59
25	0x00000002	2
26	0x00000033	51
27	0x0000000b	11
28	0x00000000	0
29	0x0000003c	60
30	0x00000019	25
31	0x00000021	33
32	0x00000055	85
33	0x00000052	82
34	0x0000001a	26
35	0x00000026	38
36	0x00000010	16
37	0x00000061	97
38	0x00000055	85
39	0x0000001a	26
40	0x00000060	96
41	0x0000002b	43
42	0x00000009	9
43	0x0000003c	60
44	0x00000023	35
45	0x00000014	20
46	0x0000001a	26
47	0x00000027	39
48	0x00000002	2
49	0x00000046	70
50	0x0000002d	45
51	0x00000012	18
52	0x00000060	96
53	0x00000024	36
54	0x00000014	20
55	0x0000003e	62
56	0x00000019	25
57	0x00000047	71
58	0x00000063	99
59	0x0000002f	47
60	0x0000000c	12
61	0x00000057	87
62	0x00000041	65
63	0x00000033	51
64	0x00000059	89
65	0x0000002e	46
66	0x00000034	52
67	0x00000026	38
68	0x00000023	35
69	0x00000016	22
70	0x0000003a	58
71	0x0000004d	77
72	0x00000037	55
73	0x0000005a	90
74	0x0000002b	43
75	0x00000028	40
76	0x00000061	97
77	0x0000005f	95
78	0x00000060	96
79	0x00000001	1
80	0x0000005a	90
81	0x0000005a	90
82	0x0000001b	27
83	0x00000017	23
84	0x00000055	85
85	0x00000025	37
86	0x0000001c	28
87	0x00000058	88
88	0x00000043	67
89	0x0000000d	13
90	0x0000000f	15
91	0x00000027	39
92	0x0000001e	30
93	0x00000018	24
94	0x0000005c	92
95	0x0000004b	75
96	0x00000053	83
97	0x0000005d	93
98	0x0000002d	45
99	0x00000062	98
100	0x00000036	54
101	0x00000046	70
102	0x0000005a	90
103	0x0000001a	26
104	0x00000008	8

bfloat16_35 bf16 [3, 5]
0	0xbe81	-0.25195312
1	0x3f02	0.5078125
2	0x3f09	0.53515625
3	0x3f69	0.91015625
4	0x3e47	0.19433594
5	0x3fc6	1.546875
6	0xbeae	-0.33984375
7	0x3f83	1.0234375
8	0xbe0f	-0.13964844
9	0x3eb3	0.34960938
10	0xbf07	-0.52734375
11	0x3f73	0.94921875
12	0xbe6b	-0.22949219
13	0xbf3a	-0.7265625
14	0x3f48	0.78125

bfloat16_357 bf16 [3, 5, 7]
0	0xbfc7	-1.5546875
1	0x3e07	0.13183594
2	0xbf8c	-1.09375
3	0xbf41	-0.75390625
4	0xbdb7	-0.08935547
5	0x3f27	0.65234375
6	0xbe24	-0.16015625
7	0xbf12	-0.5703125
8	0x3dfd	0.123535156
9	0xbf4e	-0.8046875
10	0x3d10	0.03515625
11	0x3eae	0.33984375
12	0x3f37	0.71484375
13	0xbf13	-0.57421875
14	0x3fa4	1.28125
15	0x3d3a	0.045410156
16	0xbeac	-0.3359375
17	0x3f6d	0.92578125
18	0x3fbc	1.46875
19	0x3fca	1.578125
20	0xbf3c	-0.734375
21	0xbe85	-0.25976562
22	0xbd64	-0.055664062
23	0xbe59	-0.21191406
24	0xbe8c	-0.2734375
25	0x3e6d	0.23144531
26	0x3fb4	1.40625
27	0x3f34	0.703125
28	0x3e40	0.1875
29	0xbea5	-0.32226562
30	0x3f0c	0.546875
31	0xbf95	-1.1640625
32	0x3f82	1.015625
33	0xbebd	-0.36914062
34	0x3fd5	1.6640625
35	0xbf3e	-0.7421875
36	0x3fc5	1.5390625
37	0x3fc9	1.5703125
38	0xbfa0	-1.25
39	0xbf34	-0.703125
40	0x3ccc	0.024902344
41	0xbe56	-0.20898438
42	0x0000	0.0
43	0x3fd8	1.6875
44	0x3fb3	1.3984375
45	0xbe9b	-0.30273438
46	0x3f15	0.58203125
47	0xbe80	-0.25
48	0x3fd7	1.6796875
49	0x3eb7	0.35742188
50	0xbef4	-0.4765625
51	0x3e5f	0.21777344
52	0xbedb	-0.42773438
53	0xbf81	-1.0078125
54	0x3e6d	0.23144531
55	0xbf6f	-0.93359375
56	0xbf9c	-1.21875
57	0xbd3b	-0.045654297
58	0xbfaf	-1.3671875
59	0x3f61	0.87890625
60	0x3f79	0.97265625
61	0x3d05	0.032470703
62	0x3ede	0.43359375
63	0xc002	-2.03125
64	0x3ee5	0.44726562
65	0x3fdb	1.7109375
66	0xbe47	-0.19433594
67	0xbf60	-0.875
68	0x3f6f	0.93359375
69	0xbe6f	-0.23339844
70	0x3e83	0.25585938
71	0xbf32	-0.6953125
72	0xbed7	-0.41992188
73	0xbf70	-0.9375
74	0xbf0f	-0.55859375
75	0x4037	2.859375
76	0xbd78	-0.060546875
77	0xbef0	-0.46875
78	0xbebf	-0.37304688
79	0xbfa4	-1.28125
80	0x3f78	0.96875
81	0x3f58	0.84375
82	0x3ebe	0.37109375
83	0x3fb5	1.4140625
84	0x3ee6	0.44921875
85	0xbf23	-0.63671875
86	0x3f44	0.765625
87	0x3f61	0.87890625
88	0xbed6	-0.41796875
89	0xbfe5	-1.7890625
90	0xc019	-2.390625
91	0xbf38	-0.71875
92	0x3ebf	0.37304688
93	0x3fa8	1.3125
94	0x3f6d	0.92578125
95	0x3f1f	0.62109375
96	0x38b5	8.6307526e-05
97	0x3ea0	0.3125
98	0x3fe4	1.78125
99	0x3f18	0.59375
100	0x3f16	0.5859375
101	0xbe81	-0.25195312
102	0x3f63	0.88671875
103	0x0000	0.0
104	0x3e36	0.17773438

float16_35 f2 [3, 5]
0	0xb0e5	-0.153
1	0x3d90	1.391
2	0x410c	2.523
3	0xb801	-0.5005
4	0xbd60	-1.344
5	0xa351	-0.01429
6	0x3610	0.379
7	0x333a	0.2258
8	0x3ed6	1.709
9	0x3bc4	0.9707
10	0xbb54	-0.916
11	0x354a	0.3306
12	0x3c02	1.002
13	0x2da8	0.0884
14	0x3f76	1.865

float16_357 f2 [3, 5, 7]
0	0xba62	-0.798
1	0x360a	0.3774
2	0xba09	-0.7544
3	0x3f31	1.798
4	0x3115	0.1588
5	0x3cbf	1.187
6	0xb6f2	-0.434
7	0xaff6	-0.1244
8	0xbab3	-0.8374
9	0xba7a	-0.8096
10	0x3f7c	1.871
11	0xbeff	-1.749
12	0x3f18	1.773
13	0x3a43	0.7827
14	0xb85b	-0.5444
15	0x3ca2	1.158
16	0xbca8	-1.164
17	0xb736	-0.4507
18	0x38b4	0.588
19	0xb3c6	-0.2429
20	0x3cbe	1.186
21	0xbd2f	-1.296
22	0x20cd	0.00938
23	0xb2a5	-0.2076
24	0xb476	-0.2788
25	0xbcc7	-1.194
26	0x3dd5	1.458
27	0xb9ae	-0.71
28	0x3dee	1.482
29	0x375a	0.4595
30	0xadfa	-0.0934
31	0xba12	-0.759
32	0x2d42	0.08215
33	0xadca	-0.09045
34	0xbce4	-1.223
35	0x38a8	0.582
36	0xbd45	-1.317
37	0xb97b	-0.685
38	0xc080	-2.25
39	0xbc89	-1.134
40	0x3462	0.274
41	0x3243	0.1957
42	0xbde4	-1.473
43	0x3d16	1.271
44	0x350e	0.316
45	0x3b27	0.894
46	0xba6d	-0.803
47	0x3d2b	1.292
48	0x3888	0.5664
49	0x348f	0.285
50	0xa865	-0.03433
51	0x358d	0.347
52	0x3808	0.504
53	0x361b	0.3816
54	0x37f0	0.496
55	0x3c8f	1.14
56	0x3740	0.4531
57	0x3328	0.2236
58	0x3af0	0.867
59	0x3871	0.555
60	0x3de9	1.478
61	0xbf0c	-1.762
62	0x3293	0.2054
63	0xbdef	-1.483
64	0x3cf6	1.24
65	0x3888	0.5664
66	0xb034	-0.1313
67	0xbd3a	-1.307
68	0x40bc	2.367
69	0xb829	-0.52
70	0xb98c	-0.6934
71	0x3bfc	0.998
72	0x35e3	0.368
73	0x36da	0.4282
74	0xbf4f	-1.827
75	0xbb9e	-0.952
76	0x2fe9	0.1236
77	0xa0f2	-0.00966
78	0xbce0	-1.219
79	0x3f3f	1.812
80	0xab48	-0.0569
81	0x3f0b	1.761
82	0x3dc8	1.445
83	0xb852	-0.54
84	0xb7ed	-0.4954
85	0xc02e	-2.09
86	0x3d6b	1.3545
87	0x3652	0.395
88	0xb932	-0.6494
89	0xc1ef	-2.967
90	0xb421	-0.258
91	0xb7fc	-0.499
92	0x3da7	1.413
93	0xbfa6	-1.912
94	0x3837	0.527
95	0x3c99	1.149
96	0xbe86	-1.631
97	0x39f0	0.742
98	0xb48f	-0.285
99	0xb9cd	-0.725
100	0x385c	0.545
101	0x3635	0.388
102	0x3c92	1.143
103	0x3825	0.518
104	0xb8cd	-0.6

int16_35 i2 [3, 5]
0	0x0027	39
1	0x002f	47
2	0x0045	69
3	0x0012	18
4	0x0060	96
5	0x0021	33
6	0x0036	54
7	0x0045	69
8	0x0014	20
9	0x002a	42
10	0x0045	69
11	0x0060	96
12	0x0017	23
13	0x0063	99
14	0x0027	39

int16_357 i2 [3, 5, 7]
0	0x001d	29
1	0x000c	12
2	0x0037	55
3	0x0049	73
4	0x002f	47
5	0x001c	28
6	0x003a	58
7	0x000d	13
8	0x005f	95
9	0x001e	30
10	0x000d	13
11	0x0050	80
12	0x0032	50
13	0x0045	69
14	0x0002	2
15	0x0000	0
16	0x0013	19
17	0x0027	39
18	0x0049	73
19	0x0011	17
20	0x0004	4
21	0x003f	63
22	0x0063	99
23	0x000d	13
24	0x0054	84
25	0x0031	49
26	0x0056	86
27	0x0001	1
28	0x000f	15
29	0x0047	71
30	0x005b	91
31	0x0003	3
32	0x0007	7
33	0x002e	46
34	0x0049	73
35	0x005c	92
36	0x004e	78
37	0x004c	76
38	0x0031	49
39	0x0060	96
40	0x0041	65
41	0x0047	71
42	0x0032	50
43	0x004b	75
44	0x000c	12
45	0x0031	49
46	0x005a	90
47	0x0057	87
48	0x0018	24
49	0x0005	5
50	0x0018	24
51	0x002c	44
52	0x0039	57
53	0x0013	19
54	0x005d	93
55	0x005e	94
56	0x0036	54
57	0x001d	29
58	0x0002	2
59	0x002a	42
60	0x002a	42
61	0x003e	62
62	0x0034	52
63	0x0047	71
64	0x0034	52
65	0x0056	86
66	0x0033	51
67	0x0035	53
68	0x0061	97
69	0x003d	61
70	0x0048	72
71	0x0020	32
72	0x003b	59
73	0x001e	30
74	0x0062	98
75	0x002f	47
76	0x0022	34
77	0x000e	14
78	0x0014	20
79	0x0020	32
80	0x0044	68
81	0x0063	99
82	0x003a	58
83	0x0027	39
84	0x0023	35
85	0x0010	16
86	0x001d	29
87	0x003d	61
88	0x0055	85
89	0x003f	63
90	0x003f	63
91	0x002e	46
92	0x0025	37
93	0x0063	99
94	0x0031	49
95	0x001d	29
96	0x005a	90
97	0x001a	26
98	0x0062	98
99	0x000f	15
100	0x0019	25
101	0x0034	52
102	0x0016	22
103	0x001e	30
104	0x004e	78

int8_35 i1 [3, 5]
0	0x5e	94
1	0x0b	11
2	0x4f	79
3	0x2f	47
4	0x54	84
5	0x42	66
6	0x4f	79
7	0x27	39
8	0x4c	76
9	0x38	56
10	0x2d	45
11	0x31	49
12	0x3e	62
13	0x1c	28
14	0x2d	45

int8_357 i1 [3, 5, 7]
0	0x15	21
1	0x1e	30
2	0x11	17
3	0x49	73
4	0x2c	44
5	0x3e	62
6	0x12	18
7	0x17	23
8	0x03	3
9	0x46	70
10	0x3f	63
11	0x40	64
12	0x22	34
13	0x45	69
14	0x00	0
15	0x45	69
16	0x1e	30
17	0x4d	77
18	0x07	7
19	0x46	70
20	0x00	0
21	0x4c	76
22	0x56	86
23	0x42	66
24	0x23	35
25	0x11	17
26	0x0e	14
27	0x12	18
28	0x19	25
29	0x54	84
30	0x2d	45
31	0x28	40
32	0x52	82
33	0x59	89
34	0x4f	79
35	0x4f	79
36	0x02	2
37	0x13	19
38	0x10	16
39	0x07	7
40	0x37	55
41	0x62	98
42	0x49	73
43	0x13	19
44	0x34	52
45	0x2a	42
46	0x08	8
47	0x59	89
48	0x0b	11
49	0x51	81
50	0x46	70
51	0x25	37
52	0x54	84
53	0x37	55
54	0x35	53
55	0x38	56
56	0x01	1
57	0x45	69
58	0x15	21
59	0x0a	10
60	0x2f	47
61	0x5f	95
62	0x2c	44
63	0x19	25
64	0x4d	77
65	0x01	1
66	0x36	54
67	0x54	84
68	0x1d	29
69	0x14	20
70	0x34	52
71	0x52	82
72	0x60	96
73	0x14	20
74	0x31	49
75	0x47	71
76	0x22	34
77	0x3c	60
78	0x5a	90
79	0x12	18
80	0x48	72
81	0x48	72
82	0x35	53
83	0x38	56
84	0x1a	26
85	0x07	7
86	0x59	89
87	0x13	19
88	0x23	35
89	0x0c	12
90	0x4d	77
91	0x61	97
92	0x0b	11
93	0x2c	44
94	0x5e	94
95	0x0a	10
96	0x51	81
97	0x01	1
98	0x1e	30
99	0x38	56
100	0x08	8
101	0x47	71
102	0x1b	27
103	0x07	7
104	0x61	97

uint8_35 u1 [3, 5]
0	0x15	21
1	0x1f	31
2	0x5d	93
3	0x05	5
4	0x2b	43
5	0x57	87
6	0x4a	74
7	0x40	64
8	0x63	99
9	0x19	25
10	0x25	37
11	0x3f	63
12	0x30	48
13	0x18	24
14	0x61	97

uint8_357 u1 [3, 5, 7]
0	0x2d	45
1	0x2c	44
2	0x3f	63
3	0x50	80
4	0x4a	74
5	0x5e	94
6	0x52	82
7	0x15	21
8	0x28	40
9	0x51	81
10	0x10	16
11	0x42	66
12	0x1c	28
13	0x49	73
14	0x0e	14
15	0x55	85
16	0x5d	93
17	0x1f	31
18	0x50	80
19	0x56	86
20	0x62	98
21	0x46	70
22	0x2d	45
23	0x3a	58
24	0x3f	63
25	0x51	81
26	0x52	82
27	0x13	19
28	0x3e	62
29	0x5f	95
30	0x4a	74
31	0x23	35
32	0x31	49
33	0x44	68
34	0x08	8
35	0x29	41
36	0x57	87
37	0x29	41
38	0x27	39
39	0x0a	10
40	0x43	67
41	0x38	56
42	0x11	17
43	0x1d	29
44	0x5c	92
45	0x41	65
46	0x5a	90
47	0x26	38
48	0x49	73
49	0x23	35
50	0x52	82
51	0x4e	78
52	0x00	0
53	0x4b	75
54	0x0b	11
55	0x40	64
56	0x5e	94
57	0x57	87
58	0x40	64
59	0x53	83
60	0x2f	47
61	0x32	50
62	0x42	66
63	0x49	73
64	0x54	84
65	0x33	51
66	0x27	39
67	0x14	20
68	0x33	51
69	0x3e	62
70	0x2f	47
71	0x47	71
72	0x53	83
73	0x22	34
74	0x3d	61
75	0x5a	90
76	0x25	37
77	0x1f	31
78	0x5f	95
79	0x0d	13
80	0x2f	47
81	0x3c	60
82	0x3c	60
83	0x39	57
84	0x29	41
85	0x51	81
86	0x35	53
87	0x00	0
88	0x58	88
89	0x01	1
90	0x61	97
91	0x50	80
92	0x07	7
93	0x2b	43
94	0x01	1
95	0x09	9
96	0x35	53
97	0x29	41
98	0x30	48
99	0x51	81
100	0x38	56
101	0x48	72
102	0x17	23
103	0x3c	60
104	0x3b	59
