test/sharded/model-00002-of-00006.safetensors (safetensors, 532 bytes, 1 tensors)

float32_357 f4 [3, 5, 7]
0	0x3f94eb70	1.163435
1	0xbf299a35	-0.66250926
2	0x3ed8f5ed	0.42375126
3	0x3f54e407	0.8316044
4	0xbfce2370	-1.6104565
5	0xbf2aa626	-0.6665977
6	0x3fc91843	1.5710529
7	0xbed7c556	-0.42142743
8	0xc0633194	-3.549901
9	0xbf3838d7	-0.7196173
10	0xbfc47fd1	-1.5351506
11	0x3fedfb28	1.8592272
12	0xbfb5f50e	-1.421541
13	0x3fa7a770	1.3097973
14	0xbf51d3f7	-0.8196406
15	0xbeeafdf3	-0.45896873
16	0xc007b9cf	-2.1207159
17	0x3fa99c3b	1.3250803
18	0x3fdea38e	1.7393663
19	0x3e7fe9d4	0.24991542
20	0x3f83ae60	1.028759
21	0xbf8a273a	-1.0793221
22	0xbef62eac	-0.48082483
23	0xc00dacdd	-2.2136757
24	0x3e640840	0.22268772
25	0x3f545617	0.8294386
26	0xbe3cbd66	-0.18431625
27	0xbe6e72e0	-0.23286009
28	0x3f2e4bbc	0.6808431
29	0xbed89422	-0.42300516
30	0xbf9412fe	-1.1568296
31	0xbec1ee00	-0.37876892
32	0xbfb0a96f	-1.3801707
33	0xbe9cf8b4	-0.30658495
34	0x3d8ebd4a	0.06969698
35	0xbf07daf5	-0.53068477
36	0x3d309b2c	0.043116733
37	0x3eb37325	0.35048786
38	0x3f0648ae	0.5245465
39	0x3ea5ad2e	0.32358688
40	0x40069314	2.102727
41	0xbf54b9ce	-0.83096015
42	0x3f2f17c7	0.68395656
43	0xbfb0e8a3	-1.3820995
44	0xbe94717f	-0.2899284
45	0xbf68900c	-0.908448
46	0xbe819143	-0.25306138
47	0xbf5a6cad	-0.85322076
48	0xc008c7e6	-2.1372008
49	0xbfd2ba9f	-1.6463202
50	0x3e33bf80	0.1755352
51	0xbe185bf4	-0.14878827
52	0x3ff9f47f	1.9527739
53	0xbdb0c4ee	-0.08631311
54	0xbef75968	-0.483104
55	0x3dbd7afe	0.092519745
56	0xbee14f06	-0.44005603
57	0xbe5d1e0a	-0.2159349
58	0xbfae0ed0	-1.359827
59	0xbf1e7111	-0.61891276
60	0x3e4a9791	0.1978438
61	0x3fdf0411	1.7423116
62	0xbd806dbe	-0.06270932
63	0x3f25cbc4	0.64764047
64	0x3f542e3c	0.8288305
65	0xbfb068eb	-1.3782018
66	0x3d2534a7	0.040333416
67	0xbeb627be	-0.35577196
68	0x3f653143	0.8952829
69	0x3f3c1540	0.73469925
70	0xbf8aa63c	-1.0831981
71	0x3eef415e	0.4672956
72	0xbe8fe1ec	-0.28102052
73	0xbf70fe68	-0.94138193
74	0xbe1753d0	-0.14778066
75	0xbd168bb8	-0.03675434
76	0x3eb3d46a	0.35122997
77	0xbf994165	-1.1973082
78	0x3f6d3cdf	0.92671007
79	0xbe61cf47	-0.22051726
80	0x3ea60eb4	0.32433093
81	0x3f818b6d	1.0120674
82	0x3dfb1757	0.12260311
83	0x3fa4f212	1.2886374
84	0x3f534cb1	0.82538897
85	0xbfeb717f	-1.8394011
86	0x3e77d4f8	0.24202335
87	0x4019b685	2.401765
88	0x3f2796d7	0.6546454
89	0x3e93d3a1	0.28872398
90	0x3f0f77d5	0.56042224
91	0xbf8c2ec9	-1.0951778
92	0xbf5dca48	-0.8663678
93	0xbf363b73	-0.7118446
94	0xbfdd2d21	-1.7279397
95	0xbe882af5	-0.26595274
96	0x3ea6212d	0.32447186
97	0xbfb842e3	-1.4395412
98	0x3fc40667	1.5314454
99	0x3e1a7d3b	0.15086834
100	0xbe5c3ff7	-0.21508776
101	0xbea37126	-0.31922263
102	0xbec6b8fb	-0.38813004
103	0x3dbea31b	0.09308454
104	0x3f20cb4c	0.62810206
