test/sharded/model-00001-of-00006.safetensors (safetensors, 2048 bytes, 11 tensors)

float64_3 f8 [3]
0.09568845342543757 -0.09626170885828042 -0.7743970759206625
00000000: bb2b 11da 097f b83f 6e44 677b 9ba4 b8bf
00000010: 1350 6660 dcc7 e8bf

float64_35 f8 [3, 5]
-0.5036426848400567 0.3922625116093083 0.20053902526339984 1.283556380819638 -0.2872320365248257 -0.5565002339727776 0.8116269938143087 1.5165632059257899
1.0619443780686744 -0.9883333557527256 1.521900920138524 0.3654624935175534 -0.21543015824684555 1.3247793004962578 -0.5251276604508149
00000000: e73e 8843 d71d e0bf 5fc3 b338 d41a d93f
00000010: 90fc 8945 43ab c93f 5814 636a 7289 f43f
00000020: e734 cf7a 0262 d2bf 4624 2494 d9ce e1bf
00000030: c976 5f2c d9f8 e93f 784a bcc7 d743 f83f
00000040: c39d 5f63 b9fd f03f de1f 1046 6da0 efbf
00000050: d0f4 7bc7 b459 f83f e7a3 64cc bc63 d73f
00000060: e503 1f26 3793 cbbf 75c9 a0c7 4b32 f53f
00000070: 4d8f fb85 d8cd e0bf

float32_3 f4 [3]
0.013303725 0.58198667 0.47475633
00000000: def7 593c 14fd 143f 4313 f33e

float32_35 f4 [3, 5]
-0.66061646 0.3016593 -0.12974304 -1.4512326 2.071411 -0.9551877 -0.5344914 1.083872
0.71435875 -0.0099333795 1.2402637 -1.206653 -1.4226106 0.1946168 -1.0098892
00000000: 291e 29bf 1673 9a3e 5cdb 04be fdc1 b9bf
00000010: ff91 0440 2e87 74bf 6ed4 08bf 51bc 8a3f
00000020: 37e0 363f 9dbf 22bc f6c0 9e3f 9b73 9abf
00000030: 1b18 b6bf a049 473e 0d44 81bf

int32_3 i4 [3]
42 13 59
00000000: 2a00 0000 0d00 0000 3b00 0000

int32_35 i4 [3, 5]
52 21 15 16 43 66 67 1
57 96 83 76 16 12 18
00000000: 3400 0000 1500 0000 0f00 0000 1000 0000
00000010: 2b00 0000 4200 0000 4300 0000 0100 0000
00000020: 3900 0000 6000 0000 5300 0000 4c00 0000
00000030: 1000 0000 0c00 0000 1200 0000

float16_35 f2 [3, 5]
-0.153 1.391 2.523 -0.5005 -1.344 -0.01429 0.379 0.2258
1.709 0.9707 -0.916 0.3306 1.002 0.0884 1.865
00000000: e5b0 903d 0c41 01b8 60bd 51a3 1036 3a33
00000010: d63e c43b 54bb 4a35 023c a82d 763f

float16_357 f2 [3, 5, 7]
-0.798 0.3774 -0.7544 1.798 0.1588 1.187 -0.434 -0.1244
-0.8374 -0.8096 1.871 -1.749 1.773 0.7827 -0.5444 1.158
-1.164 -0.4507 0.588 -0.2429 1.186 -1.296 0.00938 -0.2076
-0.2788 -1.194 1.458 -0.71 1.482 0.4595 -0.0934 -0.759
0.08215 -0.09045 -1.223 0.582 -1.317 -0.685 -2.25 -1.134
0.274 0.1957 -1.473 1.271 0.316 0.894 -0.803 1.292
0.5664 0.285 -0.03433 0.347 0.504 0.3816 0.496 1.14
0.4531 0.2236 0.867 0.555 1.478 -1.762 0.2054 -1.483
1.24 0.5664 -0.1313 -1.307 2.367 -0.52 -0.6934 0.998
0.368 0.4282 -1.827 -0.952 0.1236 -0.00966 -1.219 1.812
-0.0569 1.761 1.445 -0.54 -0.4954 -2.09 1.3545 0.395
-0.6494 -2.967 -0.258 -0.499 1.413 -1.912 0.527 1.149
-1.631 0.742 -0.285 -0.725 0.545 0.388 1.143 0.518
-0.6
00000000: 62ba 0a36 09ba 313f 1531 bf3c f2b6 f6af
00000010: b3ba 7aba 7c3f ffbe 183f 433a 5bb8 a23c
00000020: a8bc 36b7 b438 c6b3 be3c 2fbd cd20 a5b2
00000030: 76b4 c7bc d53d aeb9 ee3d 5a37 faad 12ba
00000040: 422d caad e4bc a838 45bd 7bb9 80c0 89bc
00000050: 6234 4332 e4bd 163d 0e35 273b 6dba 2b3d
00000060: 8838 8f34 65a8 8d35 0838 1b36 f037 8f3c
00000070: 4037 2833 f03a 7138 e93d 0cbf 9332 efbd
00000080: f63c 8838 34b0 3abd bc40 29b8 8cb9 fc3b
00000090: e335 da36 4fbf 9ebb e92f f2a0 e0bc 3f3f
000000a0: 48ab 0b3f c83d 52b8 edb7 2ec0 6b3d 5236
000000b0: 32b9 efc1 21b4 fcb7 a73d a6bf 3738 993c
000000c0: 86be f039 8fb4 cdb9 5c38 3536 923c 2538
000000d0: cdb8

int16_35 i2 [3, 5]
39 47 69 18 96 33 54 69
20 42 69 96 23 99 39
00000000: 2700 2f00 4500 1200 6000 2100 3600 4500
00000010: 1400 2a00 4500 6000 1700 6300 2700

int8_35 i1 [3, 5]
94 11 79 47 84 66 79 39
76 56 45 49 62 28 45
00000000: 5e0b 4f2f 5442 4f27 4c38 2d31 3e1c 2d

uint8_35 u1 [3, 5]
21 31 93 5 43 87 74 64
99 25 37 63 48 24 97
00000000: 151f 5d05 2b57 4a40 6319 253f 3018 61
