test/sharded/model-00006-of-00006.safetensors (safetensors, 692 bytes, 1 tensors)

bfloat16_357 bf16 [3, 5, 7]
00000000: c7bf 073e 8cbf 41bf b7bd 273f 24be 12bf
00000010: fd3d 4ebf 103d ae3e 373f 13bf a43f 3a3d
00000020: acbe 6d3f bc3f ca3f 3cbf 85be 64bd 59be
00000030: 8cbe 6d3e b43f 343f 403e a5be 0c3f 95bf
00000040: 823f bdbe d53f 3ebf c53f c93f a0bf 34bf
00000050: cc3c 56be 0000 d83f b33f 9bbe 153f 80be
00000060: d73f b73e f4be 5f3e dbbe 81bf 6d3e 6fbf
00000070: 9cbf 3bbd afbf 613f 793f 053d de3e 02c0
00000080: e53e db3f 47be 60bf 6f3f 6fbe 833e 32bf
00000090: d7be 70bf 0fbf 3740 78bd f0be bfbe a4bf
000000a0: 783f 583f be3e b53f e63e 23bf 443f 613f
000000b0: d6be e5bf 19c0 38bf bf3e a83f 6d3f 1f3f
000000c0: b538 a03e e43f 183f 163f 81be 633f 0000
000000d0: 363e
-1.5546875 0.13183594 -1.09375 -0.75390625 -0.08935547 0.65234375 -0.16015625 -0.5703125
0.123535156 -0.8046875 0.03515625 0.33984375 0.71484375 -0.57421875 1.28125 0.045410156
-0.3359375 0.92578125 1.46875 1.578125 -0.734375 -0.25976562 -0.055664062 -0.21191406
-0.2734375 0.23144531 1.40625 0.703125 0.1875 -0.32226562 0.546875 -1.1640625
1.015625 -0.36914062 1.6640625 -0.7421875 1.5390625 1.5703125 -1.25 -0.703125
0.024902344 -0.20898438 0.0 1.6875 1.3984375 -0.30273438 0.58203125 -0.25
1.6796875 0.35742188 -0.4765625 0.21777344 -0.42773438 -1.0078125 0.23144531 -0.93359375
-1.21875 -0.045654297 -1.3671875 0.87890625 0.97265625 0.032470703 0.43359375 -2.03125
0.44726562 1.7109375 -0.19433594 -0.875 0.93359375 -0.23339844 0.25585938 -0.6953125
-0.41992188 -0.9375 -0.55859375 2.859375 -0.060546875 -0.46875 -0.37304688 -1.28125
0.96875 0.84375 0.37109375 1.4140625 0.44921875 -0.63671875 0.765625 0.87890625
-0.41796875 -1.7890625 -2.390625 -0.71875 0.37304688 1.3125 0.92578125 0.62109375
8.6307526e-05 0.3125 1.78125 0.59375 0.5859375 -0.25195312 0.88671875 0.0
0.17773438
