test/sharded/model-00003-of-00006.safetensors (safetensors, 1129 bytes, 1 tensors)

float64_357 f8 [3, 5, 7]
000000 e8 94 6c 77 82 69 e8 3f 88 0d 6d 13 10 73 f2 bf
       0.7628795940878748 -1.153091503031506
000010 bb dd 5d 98 08 0f fd 3f da 33 08 ca 54 2f 8c bf
       1.8161703063795887 -0.013762152114418603
000020 dc 4f 3b f9 d9 03 ed bf b0 54 ce 47 9c 7e da 3f
       -0.9067201488310235 0.41397768986036976
000030 4a a2 e9 72 91 9b e2 bf ab 42 5f 98 7f 69 f4 3f
       -0.5814902538668971 1.2757564498935305
000040 19 29 0d d3 ab ac fe 3f 2a fe 08 fe 3a 68 ec bf
       1.9171560520358695 -0.8877234422324751
000050 ce 0b a1 26 f1 ef d3 3f 62 2c 82 9b 1d 29 e4 bf
       0.31151989719745365 -0.630019000747222
000060 34 8a ff 1b e7 5d f4 3f ac dd c2 29 98 49 ed bf
       1.2729254811935222 -0.9152336898468341
000070 f4 73 05 65 48 a3 ee 3f e0 ee b7 0c 4c 2a f3 3f
       0.9574319813797261 1.1978264328781094
000080 2c cf a3 26 45 72 e4 bf 5d 37 ab d7 93 a0 f8 bf
       -0.638948989361301 -1.5392034935534504
000090 25 9f 3d f8 0c 7e f4 bf 2f ab 38 bb 6d e3 f7 3f
       -1.280774087610504 1.493024569829412
0000a0 02 5e 78 42 ca 03 cd 3f 7c 8e 63 96 ad 88 f6 3f
       0.22667816396345591 1.408368670899022
0000b0 e3 ba e6 3a 22 08 e3 3f 2e 1c f9 0c 72 af f0 bf
       0.5947428846755795 -1.0428333765755826
0000c0 50 11 d2 ff 90 f0 d7 3f be 19 5e a4 1b 2c fa bf
       0.3740580080268687 -1.6357685490234952
0000d0 3a fe 37 ce 17 9b cb 3f ce 76 55 9b db c2 db bf
       0.21567056245111066 -0.4337681786472388
0000e0 bd 0f 82 8f d2 17 e4 bf 71 43 02 53 f3 e0 c7 bf
       -0.6279080202953008 -0.18655244401136487
0000f0 c6 cb 1e 70 98 15 e0 3f aa 8b ca fa 19 b2 c0 bf
       0.5026361646508739 -0.13043522592223883
000100 db 61 54 9d 13 94 de bf e5 58 13 a2 73 fa b5 bf
       -0.477787879602628 -0.08585283953593466
000110 a0 5a a0 1d 70 a1 f8 3f 43 e5 2f 8d fb 71 cd 3f
       1.539413562515314 0.23004097360516526
000120 97 dd 54 e4 88 6f c8 bf 4c 8f b1 e1 1a 19 e6 3f
       -0.190903769960397 0.6905645759656891
000130 f7 98 2e 36 9b f2 f0 3f 68 23 ff 26 12 33 a3 bf
       1.0592300526128022 -0.03749901510270243
000140 dc da f7 7a 9e 37 d0 bf 30 13 21 8a 6d ac ce bf
       -0.2533947182522931 -0.23963708157148167
000150 91 00 02 26 d3 f8 b1 bf ea 66 00 02 87 51 ec 3f
       -0.07020301511693307 0.8849520720570727
000160 74 22 68 b1 5a 13 e8 3f 2f 13 e0 bd a3 6c f4 3f
       0.7523625817276085 1.27652334375416
000170 e0 33 e1 57 d1 f1 e8 3f 1c 27 00 a3 e8 30 e4 3f
       0.7795187679672573 0.630970304832974
000180 49 f0 8c 00 74 6d f3 bf 7c 78 e1 9e be 7e f5 3f
       -1.2142219563966299 1.343443508747014
000190 fb 71 2e 60 79 76 f3 3f 79 34 14 c3 6d cc b0 3f
       1.216424346646021 0.06561933529538234
0001a0 be e3 48 07 3d 09 f0 bf d0 f8 6d f7 d1 d0 c3 bf
       -1.0022554668960164 -0.15481018620989184
0001b0 ae 51 de 71 48 21 e9 bf c6 4f 12 ea 56 53 d1 3f
       -0.7853128646843766 0.27071163996265246
0001c0 76 ee 34 63 b7 57 f0 3f 87 ce 7f 7c 62 11 d5 3f
       1.0214151263488964 0.32918607862595944
0001d0 7e ac 4f 7b 40 46 e4 3f 9f 52 1d 8f a0 51 d8 bf
       0.6335756691381815 -0.3799821279147099
0001e0 64 4b 44 e3 85 56 e2 bf 0c d4 18 25 df 48 f1 bf
       -0.5730618895343977 -1.080290932569599
0001f0 24 6a b2 10 dd 78 c8 bf ad 75 9c 3f 17 9f cd bf
       -0.1911884624031056 -0.23141756635679425
000200 5d 77 c2 4c 4d 5c 92 bf 8f 3f 28 22 00 fb ea bf
       -0.017930229005848165 -0.8431397120602798
000210 4e 81 f0 0e 44 96 f1 3f ce 5d e3 8f c8 6b ee bf
       1.0991859992573896 -0.9506571588817054
000220 b4 8c 36 42 8f 75 e8 3f b2 73 ea 0b a5 43 d9 3f
       0.7643505376076036 0.39475370563178125
000230 81 82 8a 9e 9d 98 d0 3f fb 02 2f f9 ad f0 8b bf
       0.2593149231197814 -0.013642653624516657
000240 1e 3a 35 d6 4f ed fa 3f 9d 00 4b f9 3b 77 95 3f
       1.682937466382675 0.02096265515388095
000250 67 bb fe 69 26 68 f7 3f d9 77 85 44 ac 18 ce 3f
       1.4629272594863438 0.23512795778054743
000260 61 af e6 35 ca 69 d8 3f 46 68 6d 5b cd b4 d9 3f
       0.3814569021585524 0.4016602890820916
000270 a8 28 00 29 49 bb ee 3f cd bb 4b 93 e7 84 e8 bf
       0.9603620339196555 -0.7662237049934163
000280 cd 19 f2 f5 0c 33 f0 bf fc 2d de d1 ac 64 f3 3f
       -1.01246353218595 1.2120788763012333
000290 5b c0 b1 d1 5d 98 f7 3f d9 e9 dc 81 4f cd e7 bf
       1.4746988478837213 -0.7438123260865793
0002a0 12 c0 06 37 bc 61 c0 3f 01 f1 05 9d f9 7f fa bf
       0.12798264204821003 -1.656243909236821
0002b0 7c b6 86 33 f0 c7 e1 3f db 0d 53 b7 9a c2 f1 3f
       0.5556565290805362 1.1100108300314477
0002c0 f3 2e 3a b8 38 b1 f2 3f 89 c1 d6 cb 70 04 a1 bf
       1.1682669826868135 -0.03323700416820247
0002d0 59 0c 0a 31 95 b8 cd 3f 59 12 bd cf aa 5e f7 3f
       0.23219551939482377 1.4606121172702358
0002e0 50 33 c8 6a 32 c0 d1 3f 5c e2 33 f2 eb ca bd 3f
       0.27735577037747294 0.1163775888743514
0002f0 ac 3a ad ea 46 bc ed bf af 24 5a 6d c2 cb ef bf
       -0.9292330344704474 -0.9936229835303915
000300 c8 09 7f c7 7e 8b d9 bf 32 91 32 42 a5 4e ed bf
       -0.39913911325507145 -0.915850285808608
000310 57 6a 91 52 7d 9f ef 3f ca a2 a0 7a be 13 ee bf
       0.9882189381272138 -0.9399101634090468
000320 ed b1 19 97 43 76 a9 bf 92 7e 08 51 fa b7 f4 3f
       -0.049730407900685815 1.2949164548262257
000330 0d 9d ca 95 8a 7e e3 3f e0 32 81 d1 d7 64 f9 3f
       0.6091969419111664 1.5871198829437887
000340 ca b3 41 21 4f 3b e5 bf
       -0.6634898805183351
