test/sharded/model-00004-of-00006.safetensors (safetensors, 1152 bytes, 4 tensors)

int32_357 i4 [3, 5, 7]
0	0x0000003c	60
1	0x00000062	98
2	0x0000000c	12
3	0x0000003e	62
4	0x00000013	19
5	0x00000010	16
6	0x0000004a	74
7	0x00000019	25
8	0x00000063	99
9	0x00000011	17
10	0x00000019	25
11	0x0000002e	46
12	0x0000000a	10
13	0x0000000f	15
14	0x00000027	39
15	0x00000062	98
16	0x00000003	3
17	0x00000045	69
18	0x00000013	19
19	0x00000033	51
20	0x00000015	21
21	0x00000003	3
22	0x0000002f	47
23	0x00000002	2
24	0x0000003b	59
25	0x00000002	2
26	0x00000033	51
27	0x0000000b	11
28	0x00000000	0
29	0x0000003c	60
30	0x00000019	25
31	0x00000021	33
32	0x00000055	85
33	0x00000052	82
34	0x0000001a	26
35	0x00000026	38
36	0x00000010	16
37	0x00000061	97
38	0x00000055	85
39	0x0000001a	26
40	0x00000060	96
41	0x0000002b	43
42	0x00000009	9
43	0x0000003c	60
44	0x00000023	35
45	0x00000014	20
46	0x0000001a	26
47	0x00000027	39
48	0x00000002	2
49	0x00000046	70
50	0x0000002d	45
51	0x00000012	18
52	0x00000060	96
53	0x00000024	36
54	0x00000014	20
55	0x0000003e	62
56	0x00000019	25
57	0x00000047	71
58	0x00000063	99
59	0x0000002f	47
60	0x0000000c	12
61	0x00000057	87
62	0x00000041	65
63	0x00000033	51
64	0x00000059	89
65	0x0000002e	46
66	0x00000034	52
67	0x00000026	38
68	0x00000023	35
69	0x00000016	22
70	0x0000003a	58
71	0x0000004d	77
72	0x00000037	55
73	0x0000005a	90
74	0x0000002b	43
75	0x00000028	40
76	0x00000061	97
77	0x0000005f	95
78	0x00000060	96
79	0x00000001	1
80	0x0000005a	90
81	0x0000005a	90
82	0x0000001b	27
83	0x00000017	23
84	0x00000055	85
85	0x00000025	37
86	0x0000001c	28
87	0x00000058	88
88	0x00000043	67
89	0x0000000d	13
90	0x0000000f	15
91	0x00000027	39
92	0x0000001e	30
93	0x00000018	24
94	0x0000005c	92
95	0x0000004b	75
96	0x00000053	83
97	0x0000005d	93
98	0x0000002d	45
99	0x00000062	98
100	0x00000036	54
101	0x00000046	70
102	0x0000005a	90
103	0x0000001a	26
104	0x00000008	8

int16_357 i2 [3, 5, 7]
0	0x001d	29
1	0x000c	12
2	0x0037	55
3	0x0049	73
4	0x002f	47
5	0x001c	28
6	0x003a	58
7	0x000d	13
8	0x005f	95
9	0x001e	30
10	0x000d	13
11	0x0050	80
12	0x0032	50
13	0x0045	69
14	0x0002	2
15	0x0000	0
16	0x0013	19
17	0x0027	39
18	0x0049	73
19	0x0011	17
20	0x0004	4
21	0x003f	63
22	0x0063	99
23	0x000d	13
24	0x0054	84
25	0x0031	49
26	0x0056	86
27	0x0001	1
28	0x000f	15
29	0x0047	71
30	0x005b	91
31	0x0003	3
32	0x0007	7
33	0x002e	46
34	0x0049	73
35	0x005c	92
36	0x004e	78
37	0x004c	76
38	0x0031	49
39	0x0060	96
40	0x0041	65
41	0x0047	71
42	0x0032	50
43	0x004b	75
44	0x000c	12
45	0x0031	49
46	0x005a	90
47	0x0057	87
48	0x0018	24
49	0x0005	5
50	0x0018	24
51	0x002c	44
52	0x0039	57
53	0x0013	19
54	0x005d	93
55	0x005e	94
56	0x0036	54
57	0x001d	29
58	0x0002	2
59	0x002a	42
60	0x002a	42
61	0x003e	62
62	0x0034	52
63	0x0047	71
64	0x0034	52
65	0x0056	86
66	0x0033	51
67	0x0035	53
68	0x0061	97
69	0x003d	61
70	0x0048	72
71	0x0020	32
72	0x003b	59
73	0x001e	30
74	0x0062	98
75	0x002f	47
76	0x0022	34
77	0x000e	14
78	0x0014	20
79	0x0020	32
80	0x0044	68
81	0x0063	99
82	0x003a	58
83	0x0027	39
84	0x0023	35
85	0x0010	16
86	0x001d	29
87	0x003d	61
88	0x0055	85
89	0x003f	63
90	0x003f	63
91	0x002e	46
92	0x0025	37
93	0x0063	99
94	0x0031	49
95	0x001d	29
96	0x005a	90
97	0x001a	26
98	0x0062	98
99	0x000f	15
100	0x0019	25
101	0x0034	52
102	0x0016	22
103	0x001e	30
104	0x004e	78

int8_357 i1 [3, 5, 7]
0	0x15	21
1	0x1e	30
2	0x11	17
3	0x49	73
4	0x2c	44
5	0x3e	62
6	0x12	18
7	0x17	23
8	0x03	3
9	0x46	70
10	0x3f	63
11	0x40	64
12	0x22	34
13	0x45	69
14	0x00	0
15	0x45	69
16	0x1e	30
17	0x4d	77
18	0x07	7
19	0x46	70
20	0x00	0
21	0x4c	76
22	0x56	86
23	0x42	66
24	0x23	35
25	0x11	17
26	0x0e	14
27	0x12	18
28	0x19	25
29	0x54	84
30	0x2d	45
31	0x28	40
32	0x52	82
33	0x59	89
34	0x4f	79
35	0x4f	79
36	0x02	2
37	0x13	19
38	0x10	16
39	0x07	7
40	0x37	55
41	0x62	98
42	0x49	73
43	0x13	19
44	0x34	52
45	0x2a	42
46	0x08	8
47	0x59	89
48	0x0b	11
49	0x51	81
50	0x46	70
51	0x25	37
52	0x54	84
53	0x37	55
54	0x35	53
55	0x38	56
56	0x01	1
57	0x45	69
58	0x15	21
59	0x0a	10
60	0x2f	47
61	0x5f	95
62	0x2c	44
63	0x19	25
64	0x4d	77
65	0x01	1
66	0x36	54
67	0x54	84
68	0x1d	29
69	0x14	20
70	0x34	52
71	0x52	82
72	0x60	96
73	0x14	20
74	0x31	49
75	0x47	71
76	0x22	34
77	0x3c	60
78	0x5a	90
79	0x12	18
80	0x48	72
81	0x48	72
82	0x35	53
83	0x38	56
84	0x1a	26
85	0x07	7
86	0x59	89
87	0x13	19
88	0x23	35
89	0x0c	12
90	0x4d	77
91	0x61	97
92	0x0b	11
93	0x2c	44
94	0x5e	94
95	0x0a	10
96	0x51	81
97	0x01	1
98	0x1e	30
99	0x38	56
100	0x08	8
101	0x47	71
102	0x1b	27
103	0x07	7
104	0x61	97

uint8_357 u1 [3, 5, 7]
0	0x2d	45
1	0x2c	44
2	0x3f	63
3	0x50	80
4	0x4a	74
5	0x5e	94
6	0x52	82
7	0x15	21
8	0x28	40
9	0x51	81
10	0x10	16
11	0x42	66
12	0x1c	28
13	0x49	73
14	0x0e	14
15	0x55	85
16	0x5d	93
17	0x1f	31
18	0x50	80
19	0x56	86
20	0x62	98
21	0x46	70
22	0x2d	45
23	0x3a	58
24	0x3f	63
25	0x51	81
26	0x52	82
27	0x13	19
28	0x3e	62
29	0x5f	95
30	0x4a	74
31	0x23	35
32	0x31	49
33	0x44	68
34	0x08	8
35	0x29	41
36	0x57	87
37	0x29	41
38	0x27	39
39	0x0a	10
40	0x43	67
41	0x38	56
42	0x11	17
43	0x1d	29
44	0x5c	92
45	0x41	65
46	0x5a	90
47	0x26	38
48	0x49	73
49	0x23	35
50	0x52	82
51	0x4e	78
52	0x00	0
53	0x4b	75
54	0x0b	11
55	0x40	64
56	0x5e	94
57	0x57	87
58	0x40	64
59	0x53	83
60	0x2f	47
61	0x32	50
62	0x42	66
63	0x49	73
64	0x54	84
65	0x33	51
66	0x27	39
67	0x14	20
68	0x33	51
69	0x3e	62
70	0x2f	47
71	0x47	71
72	0x53	83
73	0x22	34
74	0x3d	61
75	0x5a	90
76	0x25	37
77	0x1f	31
78	0x5f	95
79	0x0d	13
80	0x2f	47
81	0x3c	60
82	0x3c	60
83	0x39	57
84	0x29	41
85	0x51	81
86	0x35	53
87	0x00	0
88	0x58	88
89	0x01	1
90	0x61	97
91	0x50	80
92	0x07	7
93	0x2b	43
94	0x01	1
95	0x09	9
96	0x35	53
97	0x29	41
98	0x30	48
99	0x51	81
100	0x38	56
101	0x48	72
102	0x17	23
103	0x3c	60
104	0x3b	59
